{"class_name": "Model", "config": {"name": "model_7", "layers": [{"name": "img_input", "class_name": "InputLayer", "config": {"batch_input_shape": [null, 128, 224, 3], "dtype": "float32", "sparse": false, "name": "img_input"}, "inbound_nodes": []}, {"name": "conv2d_720", "class_name": "Conv2D", "config": {"name": "conv2d_720", "trainable": true, "filters": 24, "kernel_size": [3, 3], "strides": [1, 1], "padding": "same", "data_format": "channels_last", "dilation_rate": [1, 1], "activation": "linear", "use_bias": true, "kernel_initializer": {"class_name": "VarianceScaling", "config": {"scale": 1.0, "mode": "fan_avg", "distribution": "uniform", "seed": null}}, "bias_initializer": {"class_name": "Zeros", "config": {}}, "kernel_regularizer": null, "bias_regularizer": null, "activity_regularizer": null, "kernel_constraint": null, "bias_constraint": null}, "inbound_nodes": [[["img_input", 0, 0, {}]]]}, {"name": "batch_normalization_715", "class_name": "BatchNormalization", "config": {"name": "batch_normalization_715", "trainable": true, "axis": -1, "momentum": 0.99, "epsilon": 0.001, "center": true, "scale": true, "beta_initializer": {"class_name": "Zeros", "config": {}}, "gamma_initializer": {"class_name": "Ones", "config": {}}, "moving_mean_initializer": {"class_name": "Zeros", "config": {}}, "moving_variance_initializer": {"class_name": "Ones", "config": {}}, "beta_regularizer": null, "gamma_regularizer": null, "beta_constraint": null, "gamma_constraint": null}, "inbound_nodes": [[["conv2d_720", 0, 0, {}]]]}, {"name": "activation_715", "class_name": "Activation", "config": {"name": "activation_715", "trainable": true, "activation": "relu"}, "inbound_nodes": [[["batch_normalization_715", 0, 0, {}]]]}, {"name": "conv2d_721", "class_name": "Conv2D", "config": {"name": "conv2d_721", "trainable": true, "filters": 48, "kernel_size": [1, 1], "strides": [1, 1], "padding": "same", "data_format": "channels_last", "dilation_rate": [1, 1], "activation": "linear", "use_bias": true, "kernel_initializer": {"class_name": "VarianceScaling", "config": {"scale": 1.0, "mode": "fan_avg", "distribution": "uniform", "seed": null}}, "bias_initializer": {"class_name": "Zeros", "config": {}}, "kernel_regularizer": null, "bias_regularizer": null, "activity_regularizer": null, "kernel_constraint": null, "bias_constraint": null}, "inbound_nodes": [[["activation_715", 0, 0, {}]]]}, {"name": "batch_normalization_716", "class_name": "BatchNormalization", "config": {"name": "batch_normalization_716", "trainable": true, "axis": -1, "momentum": 0.99, "epsilon": 0.001, "center": true, "scale": true, "beta_initializer": {"class_name": "Zeros", "config": {}}, "gamma_initializer": {"class_name": "Ones", "config": {}}, "moving_mean_initializer": {"class_name": "Zeros", "config": {}}, "moving_variance_initializer": {"class_name": "Ones", "config": {}}, "beta_regularizer": null, "gamma_regularizer": null, "beta_constraint": null, "gamma_constraint": null}, "inbound_nodes": [[["conv2d_721", 0, 0, {}]]]}, {"name": "activation_716", "class_name": "Activation", "config": {"name": "activation_716", "trainable": true, "activation": "relu"}, "inbound_nodes": [[["batch_normalization_716", 0, 0, {}]]]}, {"name": "conv2d_722", "class_name": "Conv2D", "config": {"name": "conv2d_722", "trainable": true, "filters": 12, "kernel_size": [3, 3], "strides": [1, 1], "padding": "same", "data_format": "channels_last", "dilation_rate": [1, 1], "activation": "linear", "use_bias": true, "kernel_initializer": {"class_name": "VarianceScaling", "config": {"scale": 1.0, "mode": "fan_avg", "distribution": "uniform", "seed": null}}, "bias_initializer": {"class_name": "Zeros", "config": {}}, "kernel_regularizer": null, "bias_regularizer": null, "activity_regularizer": null, "kernel_constraint": null, "bias_constraint": null}, "inbound_nodes": [[["activation_716", 0, 0, {}]]]}, {"name": "dropout_386", "class_name": "Dropout", "config": {"name": "dropout_386", "trainable": true, "rate": 0.5, "noise_shape": null, "seed": null}, "inbound_nodes": [[["conv2d_722", 0, 0, {}]]]}, {"name": "concatenate_322", "class_name": "Concatenate", "config": {"name": "concatenate_322", "trainable": true, "axis": -1}, "inbound_nodes": [[["dropout_386", 0, 0, {}], ["conv2d_720", 0, 0, {}]]]}, {"name": "batch_normalization_717", "class_name": "BatchNormalization", "config": {"name": "batch_normalization_717", "trainable": true, "axis": -1, "momentum": 0.99, "epsilon": 0.001, "center": true, "scale": true, "beta_initializer": {"class_name": "Zeros", "config": {}}, "gamma_initializer": {"class_name": "Ones", "config": {}}, "moving_mean_initializer": {"class_name": "Zeros", "config": {}}, "moving_variance_initializer": {"class_name": "Ones", "config": {}}, "beta_regularizer": null, "gamma_regularizer": null, "beta_constraint": null, "gamma_constraint": null}, "inbound_nodes": [[["concatenate_322", 0, 0, {}]]]}, {"name": "activation_717", "class_name": "Activation", "config": {"name": "activation_717", "trainable": true, "activation": "relu"}, "inbound_nodes": [[["batch_normalization_717", 0, 0, {}]]]}, {"name": "conv2d_723", "class_name": "Conv2D", "config": {"name": "conv2d_723", "trainable": true, "filters": 48, "kernel_size": [1, 1], "strides": [1, 1], "padding": "same", "data_format": "channels_last", "dilation_rate": [1, 1], "activation": "linear", "use_bias": true, "kernel_initializer": {"class_name": "VarianceScaling", "config": {"scale": 1.0, "mode": "fan_avg", "distribution": "uniform", "seed": null}}, "bias_initializer": {"class_name": "Zeros", "config": {}}, "kernel_regularizer": null, "bias_regularizer": null, "activity_regularizer": null, "kernel_constraint": null, "bias_constraint": null}, "inbound_nodes": [[["activation_717", 0, 0, {}]]]}, {"name": "batch_normalization_718", "class_name": "BatchNormalization", "config": {"name": "batch_normalization_718", "trainable": true, "axis": -1, "momentum": 0.99, "epsilon": 0.001, "center": true, "scale": true, "beta_initializer": {"class_name": "Zeros", "config": {}}, "gamma_initializer": {"class_name": "Ones", "config": {}}, "moving_mean_initializer": {"class_name": "Zeros", "config": {}}, "moving_variance_initializer": {"class_name": "Ones", "config": {}}, "beta_regularizer": null, "gamma_regularizer": null, "beta_constraint": null, "gamma_constraint": null}, "inbound_nodes": [[["conv2d_723", 0, 0, {}]]]}, {"name": "activation_718", "class_name": "Activation", "config": {"name": "activation_718", "trainable": true, "activation": "relu"}, "inbound_nodes": [[["batch_normalization_718", 0, 0, {}]]]}, {"name": "conv2d_724", "class_name": "Conv2D", "config": {"name": "conv2d_724", "trainable": true, "filters": 12, "kernel_size": [3, 3], "strides": [1, 1], "padding": "same", "data_format": "channels_last", "dilation_rate": [1, 1], "activation": "linear", "use_bias": true, "kernel_initializer": {"class_name": "VarianceScaling", "config": {"scale": 1.0, "mode": "fan_avg", "distribution": "uniform", "seed": null}}, "bias_initializer": {"class_name": "Zeros", "config": {}}, "kernel_regularizer": null, "bias_regularizer": null, "activity_regularizer": null, "kernel_constraint": null, "bias_constraint": null}, "inbound_nodes": [[["activation_718", 0, 0, {}]]]}, {"name": "dropout_387", "class_name": "Dropout", "config": {"name": "dropout_387", "trainable": true, "rate": 0.5, "noise_shape": null, "seed": null}, "inbound_nodes": [[["conv2d_724", 0, 0, {}]]]}, {"name": "concatenate_323", "class_name": "Concatenate", "config": {"name": "concatenate_323", "trainable": true, "axis": -1}, "inbound_nodes": [[["dropout_387", 0, 0, {}], ["concatenate_322", 0, 0, {}]]]}, {"name": "batch_normalization_719", "class_name": "BatchNormalization", "config": {"name": "batch_normalization_719", "trainable": true, "axis": -1, "momentum": 0.99, "epsilon": 0.001, "center": true, "scale": true, "beta_initializer": {"class_name": "Zeros", "config": {}}, "gamma_initializer": {"class_name": "Ones", "config": {}}, "moving_mean_initializer": {"class_name": "Zeros", "config": {}}, "moving_variance_initializer": {"class_name": "Ones", "config": {}}, "beta_regularizer": null, "gamma_regularizer": null, "beta_constraint": null, "gamma_constraint": null}, "inbound_nodes": [[["concatenate_323", 0, 0, {}]]]}, {"name": "activation_719", "class_name": "Activation", "config": {"name": "activation_719", "trainable": true, "activation": "relu"}, "inbound_nodes": [[["batch_normalization_719", 0, 0, {}]]]}, {"name": "conv2d_725", "class_name": "Conv2D", "config": {"name": "conv2d_725", "trainable": true, "filters": 48, "kernel_size": [1, 1], "strides": [1, 1], "padding": "same", "data_format": "channels_last", "dilation_rate": [1, 1], "activation": "linear", "use_bias": true, "kernel_initializer": {"class_name": "VarianceScaling", "config": {"scale": 1.0, "mode": "fan_avg", "distribution": "uniform", "seed": null}}, "bias_initializer": {"class_name": "Zeros", "config": {}}, "kernel_regularizer": null, "bias_regularizer": null, "activity_regularizer": null, "kernel_constraint": null, "bias_constraint": null}, "inbound_nodes": [[["activation_719", 0, 0, {}]]]}, {"name": "batch_normalization_720", "class_name": "BatchNormalization", "config": {"name": "batch_normalization_720", "trainable": true, "axis": -1, "momentum": 0.99, "epsilon": 0.001, "center": true, "scale": true, "beta_initializer": {"class_name": "Zeros", "config": {}}, "gamma_initializer": {"class_name": "Ones", "config": {}}, "moving_mean_initializer": {"class_name": "Zeros", "config": {}}, "moving_variance_initializer": {"class_name": "Ones", "config": {}}, "beta_regularizer": null, "gamma_regularizer": null, "beta_constraint": null, "gamma_constraint": null}, "inbound_nodes": [[["conv2d_725", 0, 0, {}]]]}, {"name": "activation_720", "class_name": "Activation", "config": {"name": "activation_720", "trainable": true, "activation": "relu"}, "inbound_nodes": [[["batch_normalization_720", 0, 0, {}]]]}, {"name": "conv2d_726", "class_name": "Conv2D", "config": {"name": "conv2d_726", "trainable": true, "filters": 12, "kernel_size": [3, 3], "strides": [1, 1], "padding": "same", "data_format": "channels_last", "dilation_rate": [1, 1], "activation": "linear", "use_bias": true, "kernel_initializer": {"class_name": "VarianceScaling", "config": {"scale": 1.0, "mode": "fan_avg", "distribution": "uniform", "seed": null}}, "bias_initializer": {"class_name": "Zeros", "config": {}}, "kernel_regularizer": null, "bias_regularizer": null, "activity_regularizer": null, "kernel_constraint": null, "bias_constraint": null}, "inbound_nodes": [[["activation_720", 0, 0, {}]]]}, {"name": "dropout_388", "class_name": "Dropout", "config": {"name": "dropout_388", "trainable": true, "rate": 0.5, "noise_shape": null, "seed": null}, "inbound_nodes": [[["conv2d_726", 0, 0, {}]]]}, {"name": "concatenate_324", "class_name": "Concatenate", "config": {"name": "concatenate_324", "trainable": true, "axis": -1}, "inbound_nodes": [[["dropout_388", 0, 0, {}], ["concatenate_323", 0, 0, {}]]]}, {"name": "batch_normalization_721", "class_name": "BatchNormalization", "config": {"name": "batch_normalization_721", "trainable": true, "axis": -1, "momentum": 0.99, "epsilon": 0.001, "center": true, "scale": true, "beta_initializer": {"class_name": "Zeros", "config": {}}, "gamma_initializer": {"class_name": "Ones", "config": {}}, "moving_mean_initializer": {"class_name": "Zeros", "config": {}}, "moving_variance_initializer": {"class_name": "Ones", "config": {}}, "beta_regularizer": null, "gamma_regularizer": null, "beta_constraint": null, "gamma_constraint": null}, "inbound_nodes": [[["concatenate_324", 0, 0, {}]]]}, {"name": "activation_721", "class_name": "Activation", "config": {"name": "activation_721", "trainable": true, "activation": "relu"}, "inbound_nodes": [[["batch_normalization_721", 0, 0, {}]]]}, {"name": "conv2d_727", "class_name": "Conv2D", "config": {"name": "conv2d_727", "trainable": true, "filters": 48, "kernel_size": [1, 1], "strides": [1, 1], "padding": "same", "data_format": "channels_last", "dilation_rate": [1, 1], "activation": "linear", "use_bias": true, "kernel_initializer": {"class_name": "VarianceScaling", "config": {"scale": 1.0, "mode": "fan_avg", "distribution": "uniform", "seed": null}}, "bias_initializer": {"class_name": "Zeros", "config": {}}, "kernel_regularizer": null, "bias_regularizer": null, "activity_regularizer": null, "kernel_constraint": null, "bias_constraint": null}, "inbound_nodes": [[["activation_721", 0, 0, {}]]]}, {"name": "batch_normalization_722", "class_name": "BatchNormalization", "config": {"name": "batch_normalization_722", "trainable": true, "axis": -1, "momentum": 0.99, "epsilon": 0.001, "center": true, "scale": true, "beta_initializer": {"class_name": "Zeros", "config": {}}, "gamma_initializer": {"class_name": "Ones", "config": {}}, "moving_mean_initializer": {"class_name": "Zeros", "config": {}}, "moving_variance_initializer": {"class_name": "Ones", "config": {}}, "beta_regularizer": null, "gamma_regularizer": null, "beta_constraint": null, "gamma_constraint": null}, "inbound_nodes": [[["conv2d_727", 0, 0, {}]]]}, {"name": "activation_722", "class_name": "Activation", "config": {"name": "activation_722", "trainable": true, "activation": "relu"}, "inbound_nodes": [[["batch_normalization_722", 0, 0, {}]]]}, {"name": "conv2d_728", "class_name": "Conv2D", "config": {"name": "conv2d_728", "trainable": true, "filters": 12, "kernel_size": [3, 3], "strides": [1, 1], "padding": "same", "data_format": "channels_last", "dilation_rate": [1, 1], "activation": "linear", "use_bias": true, "kernel_initializer": {"class_name": "VarianceScaling", "config": {"scale": 1.0, "mode": "fan_avg", "distribution": "uniform", "seed": null}}, "bias_initializer": {"class_name": "Zeros", "config": {}}, "kernel_regularizer": null, "bias_regularizer": null, "activity_regularizer": null, "kernel_constraint": null, "bias_constraint": null}, "inbound_nodes": [[["activation_722", 0, 0, {}]]]}, {"name": "dropout_389", "class_name": "Dropout", "config": {"name": "dropout_389", "trainable": true, "rate": 0.5, "noise_shape": null, "seed": null}, "inbound_nodes": [[["conv2d_728", 0, 0, {}]]]}, {"name": "concatenate_325", "class_name": "Concatenate", "config": {"name": "concatenate_325", "trainable": true, "axis": -1}, "inbound_nodes": [[["dropout_389", 0, 0, {}], ["concatenate_324", 0, 0, {}]]]}, {"name": "batch_normalization_723", "class_name": "BatchNormalization", "config": {"name": "batch_normalization_723", "trainable": true, "axis": -1, "momentum": 0.99, "epsilon": 0.001, "center": true, "scale": true, "beta_initializer": {"class_name": "Zeros", "config": {}}, "gamma_initializer": {"class_name": "Ones", "config": {}}, "moving_mean_initializer": {"class_name": "Zeros", "config": {}}, "moving_variance_initializer": {"class_name": "Ones", "config": {}}, "beta_regularizer": null, "gamma_regularizer": null, "beta_constraint": null, "gamma_constraint": null}, "inbound_nodes": [[["concatenate_325", 0, 0, {}]]]}, {"name": "activation_723", "class_name": "Activation", "config": {"name": "activation_723", "trainable": true, "activation": "relu"}, "inbound_nodes": [[["batch_normalization_723", 0, 0, {}]]]}, {"name": "conv2d_729", "class_name": "Conv2D", "config": {"name": "conv2d_729", "trainable": true, "filters": 48, "kernel_size": [1, 1], "strides": [1, 1], "padding": "same", "data_format": "channels_last", "dilation_rate": [1, 1], "activation": "linear", "use_bias": true, "kernel_initializer": {"class_name": "VarianceScaling", "config": {"scale": 1.0, "mode": "fan_avg", "distribution": "uniform", "seed": null}}, "bias_initializer": {"class_name": "Zeros", "config": {}}, "kernel_regularizer": null, "bias_regularizer": null, "activity_regularizer": null, "kernel_constraint": null, "bias_constraint": null}, "inbound_nodes": [[["activation_723", 0, 0, {}]]]}, {"name": "batch_normalization_724", "class_name": "BatchNormalization", "config": {"name": "batch_normalization_724", "trainable": true, "axis": -1, "momentum": 0.99, "epsilon": 0.001, "center": true, "scale": true, "beta_initializer": {"class_name": "Zeros", "config": {}}, "gamma_initializer": {"class_name": "Ones", "config": {}}, "moving_mean_initializer": {"class_name": "Zeros", "config": {}}, "moving_variance_initializer": {"class_name": "Ones", "config": {}}, "beta_regularizer": null, "gamma_regularizer": null, "beta_constraint": null, "gamma_constraint": null}, "inbound_nodes": [[["conv2d_729", 0, 0, {}]]]}, {"name": "activation_724", "class_name": "Activation", "config": {"name": "activation_724", "trainable": true, "activation": "relu"}, "inbound_nodes": [[["batch_normalization_724", 0, 0, {}]]]}, {"name": "conv2d_730", "class_name": "Conv2D", "config": {"name": "conv2d_730", "trainable": true, "filters": 12, "kernel_size": [3, 3], "strides": [1, 1], "padding": "same", "data_format": "channels_last", "dilation_rate": [1, 1], "activation": "linear", "use_bias": true, "kernel_initializer": {"class_name": "VarianceScaling", "config": {"scale": 1.0, "mode": "fan_avg", "distribution": "uniform", "seed": null}}, "bias_initializer": {"class_name": "Zeros", "config": {}}, "kernel_regularizer": null, "bias_regularizer": null, "activity_regularizer": null, "kernel_constraint": null, "bias_constraint": null}, "inbound_nodes": [[["activation_724", 0, 0, {}]]]}, {"name": "dropout_390", "class_name": "Dropout", "config": {"name": "dropout_390", "trainable": true, "rate": 0.5, "noise_shape": null, "seed": null}, "inbound_nodes": [[["conv2d_730", 0, 0, {}]]]}, {"name": "concatenate_326", "class_name": "Concatenate", "config": {"name": "concatenate_326", "trainable": true, "axis": -1}, "inbound_nodes": [[["dropout_390", 0, 0, {}], ["concatenate_325", 0, 0, {}]]]}, {"name": "batch_normalization_725", "class_name": "BatchNormalization", "config": {"name": "batch_normalization_725", "trainable": true, "axis": -1, "momentum": 0.99, "epsilon": 0.001, "center": true, "scale": true, "beta_initializer": {"class_name": "Zeros", "config": {}}, "gamma_initializer": {"class_name": "Ones", "config": {}}, "moving_mean_initializer": {"class_name": "Zeros", "config": {}}, "moving_variance_initializer": {"class_name": "Ones", "config": {}}, "beta_regularizer": null, "gamma_regularizer": null, "beta_constraint": null, "gamma_constraint": null}, "inbound_nodes": [[["concatenate_326", 0, 0, {}]]]}, {"name": "activation_725", "class_name": "Activation", "config": {"name": "activation_725", "trainable": true, "activation": "relu"}, "inbound_nodes": [[["batch_normalization_725", 0, 0, {}]]]}, {"name": "conv2d_731", "class_name": "Conv2D", "config": {"name": "conv2d_731", "trainable": true, "filters": 42, "kernel_size": [1, 1], "strides": [1, 1], "padding": "same", "data_format": "channels_last", "dilation_rate": [1, 1], "activation": "linear", "use_bias": true, "kernel_initializer": {"class_name": "VarianceScaling", "config": {"scale": 1.0, "mode": "fan_avg", "distribution": "uniform", "seed": null}}, "bias_initializer": {"class_name": "Zeros", "config": {}}, "kernel_regularizer": null, "bias_regularizer": null, "activity_regularizer": null, "kernel_constraint": null, "bias_constraint": null}, "inbound_nodes": [[["activation_725", 0, 0, {}]]]}, {"name": "dropout_391", "class_name": "Dropout", "config": {"name": "dropout_391", "trainable": true, "rate": 0.5, "noise_shape": null, "seed": null}, "inbound_nodes": [[["conv2d_731", 0, 0, {}]]]}, {"name": "average_pooling2d_65", "class_name": "AveragePooling2D", "config": {"name": "average_pooling2d_65", "trainable": true, "pool_size": [2, 2], "padding": "valid", "strides": [2, 2], "data_format": "channels_last"}, "inbound_nodes": [[["dropout_391", 0, 0, {}]]]}, {"name": "batch_normalization_726", "class_name": "BatchNormalization", "config": {"name": "batch_normalization_726", "trainable": true, "axis": -1, "momentum": 0.99, "epsilon": 0.001, "center": true, "scale": true, "beta_initializer": {"class_name": "Zeros", "config": {}}, "gamma_initializer": {"class_name": "Ones", "config": {}}, "moving_mean_initializer": {"class_name": "Zeros", "config": {}}, "moving_variance_initializer": {"class_name": "Ones", "config": {}}, "beta_regularizer": null, "gamma_regularizer": null, "beta_constraint": null, "gamma_constraint": null}, "inbound_nodes": [[["average_pooling2d_65", 0, 0, {}]]]}, {"name": "activation_726", "class_name": "Activation", "config": {"name": "activation_726", "trainable": true, "activation": "relu"}, "inbound_nodes": [[["batch_normalization_726", 0, 0, {}]]]}, {"name": "conv2d_732", "class_name": "Conv2D", "config": {"name": "conv2d_732", "trainable": true, "filters": 48, "kernel_size": [1, 1], "strides": [1, 1], "padding": "same", "data_format": "channels_last", "dilation_rate": [1, 1], "activation": "linear", "use_bias": true, "kernel_initializer": {"class_name": "VarianceScaling", "config": {"scale": 1.0, "mode": "fan_avg", "distribution": "uniform", "seed": null}}, "bias_initializer": {"class_name": "Zeros", "config": {}}, "kernel_regularizer": null, "bias_regularizer": null, "activity_regularizer": null, "kernel_constraint": null, "bias_constraint": null}, "inbound_nodes": [[["activation_726", 0, 0, {}]]]}, {"name": "batch_normalization_727", "class_name": "BatchNormalization", "config": {"name": "batch_normalization_727", "trainable": true, "axis": -1, "momentum": 0.99, "epsilon": 0.001, "center": true, "scale": true, "beta_initializer": {"class_name": "Zeros", "config": {}}, "gamma_initializer": {"class_name": "Ones", "config": {}}, "moving_mean_initializer": {"class_name": "Zeros", "config": {}}, "moving_variance_initializer": {"class_name": "Ones", "config": {}}, "beta_regularizer": null, "gamma_regularizer": null, "beta_constraint": null, "gamma_constraint": null}, "inbound_nodes": [[["conv2d_732", 0, 0, {}]]]}, {"name": "activation_727", "class_name": "Activation", "config": {"name": "activation_727", "trainable": true, "activation": "relu"}, "inbound_nodes": [[["batch_normalization_727", 0, 0, {}]]]}, {"name": "conv2d_733", "class_name": "Conv2D", "config": {"name": "conv2d_733", "trainable": true, "filters": 12, "kernel_size": [3, 3], "strides": [1, 1], "padding": "same", "data_format": "channels_last", "dilation_rate": [1, 1], "activation": "linear", "use_bias": true, "kernel_initializer": {"class_name": "VarianceScaling", "config": {"scale": 1.0, "mode": "fan_avg", "distribution": "uniform", "seed": null}}, "bias_initializer": {"class_name": "Zeros", "config": {}}, "kernel_regularizer": null, "bias_regularizer": null, "activity_regularizer": null, "kernel_constraint": null, "bias_constraint": null}, "inbound_nodes": [[["activation_727", 0, 0, {}]]]}, {"name": "dropout_392", "class_name": "Dropout", "config": {"name": "dropout_392", "trainable": true, "rate": 0.5, "noise_shape": null, "seed": null}, "inbound_nodes": [[["conv2d_733", 0, 0, {}]]]}, {"name": "concatenate_327", "class_name": "Concatenate", "config": {"name": "concatenate_327", "trainable": true, "axis": -1}, "inbound_nodes": [[["dropout_392", 0, 0, {}], ["average_pooling2d_65", 0, 0, {}]]]}, {"name": "batch_normalization_728", "class_name": "BatchNormalization", "config": {"name": "batch_normalization_728", "trainable": true, "axis": -1, "momentum": 0.99, "epsilon": 0.001, "center": true, "scale": true, "beta_initializer": {"class_name": "Zeros", "config": {}}, "gamma_initializer": {"class_name": "Ones", "config": {}}, "moving_mean_initializer": {"class_name": "Zeros", "config": {}}, "moving_variance_initializer": {"class_name": "Ones", "config": {}}, "beta_regularizer": null, "gamma_regularizer": null, "beta_constraint": null, "gamma_constraint": null}, "inbound_nodes": [[["concatenate_327", 0, 0, {}]]]}, {"name": "activation_728", "class_name": "Activation", "config": {"name": "activation_728", "trainable": true, "activation": "relu"}, "inbound_nodes": [[["batch_normalization_728", 0, 0, {}]]]}, {"name": "conv2d_734", "class_name": "Conv2D", "config": {"name": "conv2d_734", "trainable": true, "filters": 48, "kernel_size": [1, 1], "strides": [1, 1], "padding": "same", "data_format": "channels_last", "dilation_rate": [1, 1], "activation": "linear", "use_bias": true, "kernel_initializer": {"class_name": "VarianceScaling", "config": {"scale": 1.0, "mode": "fan_avg", "distribution": "uniform", "seed": null}}, "bias_initializer": {"class_name": "Zeros", "config": {}}, "kernel_regularizer": null, "bias_regularizer": null, "activity_regularizer": null, "kernel_constraint": null, "bias_constraint": null}, "inbound_nodes": [[["activation_728", 0, 0, {}]]]}, {"name": "batch_normalization_729", "class_name": "BatchNormalization", "config": {"name": "batch_normalization_729", "trainable": true, "axis": -1, "momentum": 0.99, "epsilon": 0.001, "center": true, "scale": true, "beta_initializer": {"class_name": "Zeros", "config": {}}, "gamma_initializer": {"class_name": "Ones", "config": {}}, "moving_mean_initializer": {"class_name": "Zeros", "config": {}}, "moving_variance_initializer": {"class_name": "Ones", "config": {}}, "beta_regularizer": null, "gamma_regularizer": null, "beta_constraint": null, "gamma_constraint": null}, "inbound_nodes": [[["conv2d_734", 0, 0, {}]]]}, {"name": "activation_729", "class_name": "Activation", "config": {"name": "activation_729", "trainable": true, "activation": "relu"}, "inbound_nodes": [[["batch_normalization_729", 0, 0, {}]]]}, {"name": "conv2d_735", "class_name": "Conv2D", "config": {"name": "conv2d_735", "trainable": true, "filters": 12, "kernel_size": [3, 3], "strides": [1, 1], "padding": "same", "data_format": "channels_last", "dilation_rate": [1, 1], "activation": "linear", "use_bias": true, "kernel_initializer": {"class_name": "VarianceScaling", "config": {"scale": 1.0, "mode": "fan_avg", "distribution": "uniform", "seed": null}}, "bias_initializer": {"class_name": "Zeros", "config": {}}, "kernel_regularizer": null, "bias_regularizer": null, "activity_regularizer": null, "kernel_constraint": null, "bias_constraint": null}, "inbound_nodes": [[["activation_729", 0, 0, {}]]]}, {"name": "dropout_393", "class_name": "Dropout", "config": {"name": "dropout_393", "trainable": true, "rate": 0.5, "noise_shape": null, "seed": null}, "inbound_nodes": [[["conv2d_735", 0, 0, {}]]]}, {"name": "concatenate_328", "class_name": "Concatenate", "config": {"name": "concatenate_328", "trainable": true, "axis": -1}, "inbound_nodes": [[["dropout_393", 0, 0, {}], ["concatenate_327", 0, 0, {}]]]}, {"name": "batch_normalization_730", "class_name": "BatchNormalization", "config": {"name": "batch_normalization_730", "trainable": true, "axis": -1, "momentum": 0.99, "epsilon": 0.001, "center": true, "scale": true, "beta_initializer": {"class_name": "Zeros", "config": {}}, "gamma_initializer": {"class_name": "Ones", "config": {}}, "moving_mean_initializer": {"class_name": "Zeros", "config": {}}, "moving_variance_initializer": {"class_name": "Ones", "config": {}}, "beta_regularizer": null, "gamma_regularizer": null, "beta_constraint": null, "gamma_constraint": null}, "inbound_nodes": [[["concatenate_328", 0, 0, {}]]]}, {"name": "activation_730", "class_name": "Activation", "config": {"name": "activation_730", "trainable": true, "activation": "relu"}, "inbound_nodes": [[["batch_normalization_730", 0, 0, {}]]]}, {"name": "conv2d_736", "class_name": "Conv2D", "config": {"name": "conv2d_736", "trainable": true, "filters": 48, "kernel_size": [1, 1], "strides": [1, 1], "padding": "same", "data_format": "channels_last", "dilation_rate": [1, 1], "activation": "linear", "use_bias": true, "kernel_initializer": {"class_name": "VarianceScaling", "config": {"scale": 1.0, "mode": "fan_avg", "distribution": "uniform", "seed": null}}, "bias_initializer": {"class_name": "Zeros", "config": {}}, "kernel_regularizer": null, "bias_regularizer": null, "activity_regularizer": null, "kernel_constraint": null, "bias_constraint": null}, "inbound_nodes": [[["activation_730", 0, 0, {}]]]}, {"name": "batch_normalization_731", "class_name": "BatchNormalization", "config": {"name": "batch_normalization_731", "trainable": true, "axis": -1, "momentum": 0.99, "epsilon": 0.001, "center": true, "scale": true, "beta_initializer": {"class_name": "Zeros", "config": {}}, "gamma_initializer": {"class_name": "Ones", "config": {}}, "moving_mean_initializer": {"class_name": "Zeros", "config": {}}, "moving_variance_initializer": {"class_name": "Ones", "config": {}}, "beta_regularizer": null, "gamma_regularizer": null, "beta_constraint": null, "gamma_constraint": null}, "inbound_nodes": [[["conv2d_736", 0, 0, {}]]]}, {"name": "activation_731", "class_name": "Activation", "config": {"name": "activation_731", "trainable": true, "activation": "relu"}, "inbound_nodes": [[["batch_normalization_731", 0, 0, {}]]]}, {"name": "conv2d_737", "class_name": "Conv2D", "config": {"name": "conv2d_737", "trainable": true, "filters": 12, "kernel_size": [3, 3], "strides": [1, 1], "padding": "same", "data_format": "channels_last", "dilation_rate": [1, 1], "activation": "linear", "use_bias": true, "kernel_initializer": {"class_name": "VarianceScaling", "config": {"scale": 1.0, "mode": "fan_avg", "distribution": "uniform", "seed": null}}, "bias_initializer": {"class_name": "Zeros", "config": {}}, "kernel_regularizer": null, "bias_regularizer": null, "activity_regularizer": null, "kernel_constraint": null, "bias_constraint": null}, "inbound_nodes": [[["activation_731", 0, 0, {}]]]}, {"name": "dropout_394", "class_name": "Dropout", "config": {"name": "dropout_394", "trainable": true, "rate": 0.5, "noise_shape": null, "seed": null}, "inbound_nodes": [[["conv2d_737", 0, 0, {}]]]}, {"name": "concatenate_329", "class_name": "Concatenate", "config": {"name": "concatenate_329", "trainable": true, "axis": -1}, "inbound_nodes": [[["dropout_394", 0, 0, {}], ["concatenate_328", 0, 0, {}]]]}, {"name": "batch_normalization_732", "class_name": "BatchNormalization", "config": {"name": "batch_normalization_732", "trainable": true, "axis": -1, "momentum": 0.99, "epsilon": 0.001, "center": true, "scale": true, "beta_initializer": {"class_name": "Zeros", "config": {}}, "gamma_initializer": {"class_name": "Ones", "config": {}}, "moving_mean_initializer": {"class_name": "Zeros", "config": {}}, "moving_variance_initializer": {"class_name": "Ones", "config": {}}, "beta_regularizer": null, "gamma_regularizer": null, "beta_constraint": null, "gamma_constraint": null}, "inbound_nodes": [[["concatenate_329", 0, 0, {}]]]}, {"name": "activation_732", "class_name": "Activation", "config": {"name": "activation_732", "trainable": true, "activation": "relu"}, "inbound_nodes": [[["batch_normalization_732", 0, 0, {}]]]}, {"name": "conv2d_738", "class_name": "Conv2D", "config": {"name": "conv2d_738", "trainable": true, "filters": 48, "kernel_size": [1, 1], "strides": [1, 1], "padding": "same", "data_format": "channels_last", "dilation_rate": [1, 1], "activation": "linear", "use_bias": true, "kernel_initializer": {"class_name": "VarianceScaling", "config": {"scale": 1.0, "mode": "fan_avg", "distribution": "uniform", "seed": null}}, "bias_initializer": {"class_name": "Zeros", "config": {}}, "kernel_regularizer": null, "bias_regularizer": null, "activity_regularizer": null, "kernel_constraint": null, "bias_constraint": null}, "inbound_nodes": [[["activation_732", 0, 0, {}]]]}, {"name": "batch_normalization_733", "class_name": "BatchNormalization", "config": {"name": "batch_normalization_733", "trainable": true, "axis": -1, "momentum": 0.99, "epsilon": 0.001, "center": true, "scale": true, "beta_initializer": {"class_name": "Zeros", "config": {}}, "gamma_initializer": {"class_name": "Ones", "config": {}}, "moving_mean_initializer": {"class_name": "Zeros", "config": {}}, "moving_variance_initializer": {"class_name": "Ones", "config": {}}, "beta_regularizer": null, "gamma_regularizer": null, "beta_constraint": null, "gamma_constraint": null}, "inbound_nodes": [[["conv2d_738", 0, 0, {}]]]}, {"name": "activation_733", "class_name": "Activation", "config": {"name": "activation_733", "trainable": true, "activation": "relu"}, "inbound_nodes": [[["batch_normalization_733", 0, 0, {}]]]}, {"name": "conv2d_739", "class_name": "Conv2D", "config": {"name": "conv2d_739", "trainable": true, "filters": 12, "kernel_size": [3, 3], "strides": [1, 1], "padding": "same", "data_format": "channels_last", "dilation_rate": [1, 1], "activation": "linear", "use_bias": true, "kernel_initializer": {"class_name": "VarianceScaling", "config": {"scale": 1.0, "mode": "fan_avg", "distribution": "uniform", "seed": null}}, "bias_initializer": {"class_name": "Zeros", "config": {}}, "kernel_regularizer": null, "bias_regularizer": null, "activity_regularizer": null, "kernel_constraint": null, "bias_constraint": null}, "inbound_nodes": [[["activation_733", 0, 0, {}]]]}, {"name": "dropout_395", "class_name": "Dropout", "config": {"name": "dropout_395", "trainable": true, "rate": 0.5, "noise_shape": null, "seed": null}, "inbound_nodes": [[["conv2d_739", 0, 0, {}]]]}, {"name": "concatenate_330", "class_name": "Concatenate", "config": {"name": "concatenate_330", "trainable": true, "axis": -1}, "inbound_nodes": [[["dropout_395", 0, 0, {}], ["concatenate_329", 0, 0, {}]]]}, {"name": "batch_normalization_734", "class_name": "BatchNormalization", "config": {"name": "batch_normalization_734", "trainable": true, "axis": -1, "momentum": 0.99, "epsilon": 0.001, "center": true, "scale": true, "beta_initializer": {"class_name": "Zeros", "config": {}}, "gamma_initializer": {"class_name": "Ones", "config": {}}, "moving_mean_initializer": {"class_name": "Zeros", "config": {}}, "moving_variance_initializer": {"class_name": "Ones", "config": {}}, "beta_regularizer": null, "gamma_regularizer": null, "beta_constraint": null, "gamma_constraint": null}, "inbound_nodes": [[["concatenate_330", 0, 0, {}]]]}, {"name": "activation_734", "class_name": "Activation", "config": {"name": "activation_734", "trainable": true, "activation": "relu"}, "inbound_nodes": [[["batch_normalization_734", 0, 0, {}]]]}, {"name": "conv2d_740", "class_name": "Conv2D", "config": {"name": "conv2d_740", "trainable": true, "filters": 48, "kernel_size": [1, 1], "strides": [1, 1], "padding": "same", "data_format": "channels_last", "dilation_rate": [1, 1], "activation": "linear", "use_bias": true, "kernel_initializer": {"class_name": "VarianceScaling", "config": {"scale": 1.0, "mode": "fan_avg", "distribution": "uniform", "seed": null}}, "bias_initializer": {"class_name": "Zeros", "config": {}}, "kernel_regularizer": null, "bias_regularizer": null, "activity_regularizer": null, "kernel_constraint": null, "bias_constraint": null}, "inbound_nodes": [[["activation_734", 0, 0, {}]]]}, {"name": "batch_normalization_735", "class_name": "BatchNormalization", "config": {"name": "batch_normalization_735", "trainable": true, "axis": -1, "momentum": 0.99, "epsilon": 0.001, "center": true, "scale": true, "beta_initializer": {"class_name": "Zeros", "config": {}}, "gamma_initializer": {"class_name": "Ones", "config": {}}, "moving_mean_initializer": {"class_name": "Zeros", "config": {}}, "moving_variance_initializer": {"class_name": "Ones", "config": {}}, "beta_regularizer": null, "gamma_regularizer": null, "beta_constraint": null, "gamma_constraint": null}, "inbound_nodes": [[["conv2d_740", 0, 0, {}]]]}, {"name": "activation_735", "class_name": "Activation", "config": {"name": "activation_735", "trainable": true, "activation": "relu"}, "inbound_nodes": [[["batch_normalization_735", 0, 0, {}]]]}, {"name": "conv2d_741", "class_name": "Conv2D", "config": {"name": "conv2d_741", "trainable": true, "filters": 12, "kernel_size": [3, 3], "strides": [1, 1], "padding": "same", "data_format": "channels_last", "dilation_rate": [1, 1], "activation": "linear", "use_bias": true, "kernel_initializer": {"class_name": "VarianceScaling", "config": {"scale": 1.0, "mode": "fan_avg", "distribution": "uniform", "seed": null}}, "bias_initializer": {"class_name": "Zeros", "config": {}}, "kernel_regularizer": null, "bias_regularizer": null, "activity_regularizer": null, "kernel_constraint": null, "bias_constraint": null}, "inbound_nodes": [[["activation_735", 0, 0, {}]]]}, {"name": "dropout_396", "class_name": "Dropout", "config": {"name": "dropout_396", "trainable": true, "rate": 0.5, "noise_shape": null, "seed": null}, "inbound_nodes": [[["conv2d_741", 0, 0, {}]]]}, {"name": "concatenate_331", "class_name": "Concatenate", "config": {"name": "concatenate_331", "trainable": true, "axis": -1}, "inbound_nodes": [[["dropout_396", 0, 0, {}], ["concatenate_330", 0, 0, {}]]]}, {"name": "batch_normalization_736", "class_name": "BatchNormalization", "config": {"name": "batch_normalization_736", "trainable": true, "axis": -1, "momentum": 0.99, "epsilon": 0.001, "center": true, "scale": true, "beta_initializer": {"class_name": "Zeros", "config": {}}, "gamma_initializer": {"class_name": "Ones", "config": {}}, "moving_mean_initializer": {"class_name": "Zeros", "config": {}}, "moving_variance_initializer": {"class_name": "Ones", "config": {}}, "beta_regularizer": null, "gamma_regularizer": null, "beta_constraint": null, "gamma_constraint": null}, "inbound_nodes": [[["concatenate_331", 0, 0, {}]]]}, {"name": "activation_736", "class_name": "Activation", "config": {"name": "activation_736", "trainable": true, "activation": "relu"}, "inbound_nodes": [[["batch_normalization_736", 0, 0, {}]]]}, {"name": "conv2d_742", "class_name": "Conv2D", "config": {"name": "conv2d_742", "trainable": true, "filters": 51, "kernel_size": [1, 1], "strides": [1, 1], "padding": "same", "data_format": "channels_last", "dilation_rate": [1, 1], "activation": "linear", "use_bias": true, "kernel_initializer": {"class_name": "VarianceScaling", "config": {"scale": 1.0, "mode": "fan_avg", "distribution": "uniform", "seed": null}}, "bias_initializer": {"class_name": "Zeros", "config": {}}, "kernel_regularizer": null, "bias_regularizer": null, "activity_regularizer": null, "kernel_constraint": null, "bias_constraint": null}, "inbound_nodes": [[["activation_736", 0, 0, {}]]]}, {"name": "dropout_397", "class_name": "Dropout", "config": {"name": "dropout_397", "trainable": true, "rate": 0.5, "noise_shape": null, "seed": null}, "inbound_nodes": [[["conv2d_742", 0, 0, {}]]]}, {"name": "average_pooling2d_66", "class_name": "AveragePooling2D", "config": {"name": "average_pooling2d_66", "trainable": true, "pool_size": [2, 2], "padding": "valid", "strides": [2, 2], "data_format": "channels_last"}, "inbound_nodes": [[["dropout_397", 0, 0, {}]]]}, {"name": "batch_normalization_737", "class_name": "BatchNormalization", "config": {"name": "batch_normalization_737", "trainable": true, "axis": -1, "momentum": 0.99, "epsilon": 0.001, "center": true, "scale": true, "beta_initializer": {"class_name": "Zeros", "config": {}}, "gamma_initializer": {"class_name": "Ones", "config": {}}, "moving_mean_initializer": {"class_name": "Zeros", "config": {}}, "moving_variance_initializer": {"class_name": "Ones", "config": {}}, "beta_regularizer": null, "gamma_regularizer": null, "beta_constraint": null, "gamma_constraint": null}, "inbound_nodes": [[["average_pooling2d_66", 0, 0, {}]]]}, {"name": "activation_737", "class_name": "Activation", "config": {"name": "activation_737", "trainable": true, "activation": "relu"}, "inbound_nodes": [[["batch_normalization_737", 0, 0, {}]]]}, {"name": "conv2d_743", "class_name": "Conv2D", "config": {"name": "conv2d_743", "trainable": true, "filters": 48, "kernel_size": [1, 1], "strides": [1, 1], "padding": "same", "data_format": "channels_last", "dilation_rate": [1, 1], "activation": "linear", "use_bias": true, "kernel_initializer": {"class_name": "VarianceScaling", "config": {"scale": 1.0, "mode": "fan_avg", "distribution": "uniform", "seed": null}}, "bias_initializer": {"class_name": "Zeros", "config": {}}, "kernel_regularizer": null, "bias_regularizer": null, "activity_regularizer": null, "kernel_constraint": null, "bias_constraint": null}, "inbound_nodes": [[["activation_737", 0, 0, {}]]]}, {"name": "batch_normalization_738", "class_name": "BatchNormalization", "config": {"name": "batch_normalization_738", "trainable": true, "axis": -1, "momentum": 0.99, "epsilon": 0.001, "center": true, "scale": true, "beta_initializer": {"class_name": "Zeros", "config": {}}, "gamma_initializer": {"class_name": "Ones", "config": {}}, "moving_mean_initializer": {"class_name": "Zeros", "config": {}}, "moving_variance_initializer": {"class_name": "Ones", "config": {}}, "beta_regularizer": null, "gamma_regularizer": null, "beta_constraint": null, "gamma_constraint": null}, "inbound_nodes": [[["conv2d_743", 0, 0, {}]]]}, {"name": "activation_738", "class_name": "Activation", "config": {"name": "activation_738", "trainable": true, "activation": "relu"}, "inbound_nodes": [[["batch_normalization_738", 0, 0, {}]]]}, {"name": "conv2d_744", "class_name": "Conv2D", "config": {"name": "conv2d_744", "trainable": true, "filters": 12, "kernel_size": [3, 3], "strides": [1, 1], "padding": "same", "data_format": "channels_last", "dilation_rate": [1, 1], "activation": "linear", "use_bias": true, "kernel_initializer": {"class_name": "VarianceScaling", "config": {"scale": 1.0, "mode": "fan_avg", "distribution": "uniform", "seed": null}}, "bias_initializer": {"class_name": "Zeros", "config": {}}, "kernel_regularizer": null, "bias_regularizer": null, "activity_regularizer": null, "kernel_constraint": null, "bias_constraint": null}, "inbound_nodes": [[["activation_738", 0, 0, {}]]]}, {"name": "dropout_398", "class_name": "Dropout", "config": {"name": "dropout_398", "trainable": true, "rate": 0.5, "noise_shape": null, "seed": null}, "inbound_nodes": [[["conv2d_744", 0, 0, {}]]]}, {"name": "concatenate_332", "class_name": "Concatenate", "config": {"name": "concatenate_332", "trainable": true, "axis": -1}, "inbound_nodes": [[["dropout_398", 0, 0, {}], ["average_pooling2d_66", 0, 0, {}]]]}, {"name": "batch_normalization_739", "class_name": "BatchNormalization", "config": {"name": "batch_normalization_739", "trainable": true, "axis": -1, "momentum": 0.99, "epsilon": 0.001, "center": true, "scale": true, "beta_initializer": {"class_name": "Zeros", "config": {}}, "gamma_initializer": {"class_name": "Ones", "config": {}}, "moving_mean_initializer": {"class_name": "Zeros", "config": {}}, "moving_variance_initializer": {"class_name": "Ones", "config": {}}, "beta_regularizer": null, "gamma_regularizer": null, "beta_constraint": null, "gamma_constraint": null}, "inbound_nodes": [[["concatenate_332", 0, 0, {}]]]}, {"name": "activation_739", "class_name": "Activation", "config": {"name": "activation_739", "trainable": true, "activation": "relu"}, "inbound_nodes": [[["batch_normalization_739", 0, 0, {}]]]}, {"name": "conv2d_745", "class_name": "Conv2D", "config": {"name": "conv2d_745", "trainable": true, "filters": 48, "kernel_size": [1, 1], "strides": [1, 1], "padding": "same", "data_format": "channels_last", "dilation_rate": [1, 1], "activation": "linear", "use_bias": true, "kernel_initializer": {"class_name": "VarianceScaling", "config": {"scale": 1.0, "mode": "fan_avg", "distribution": "uniform", "seed": null}}, "bias_initializer": {"class_name": "Zeros", "config": {}}, "kernel_regularizer": null, "bias_regularizer": null, "activity_regularizer": null, "kernel_constraint": null, "bias_constraint": null}, "inbound_nodes": [[["activation_739", 0, 0, {}]]]}, {"name": "batch_normalization_740", "class_name": "BatchNormalization", "config": {"name": "batch_normalization_740", "trainable": true, "axis": -1, "momentum": 0.99, "epsilon": 0.001, "center": true, "scale": true, "beta_initializer": {"class_name": "Zeros", "config": {}}, "gamma_initializer": {"class_name": "Ones", "config": {}}, "moving_mean_initializer": {"class_name": "Zeros", "config": {}}, "moving_variance_initializer": {"class_name": "Ones", "config": {}}, "beta_regularizer": null, "gamma_regularizer": null, "beta_constraint": null, "gamma_constraint": null}, "inbound_nodes": [[["conv2d_745", 0, 0, {}]]]}, {"name": "activation_740", "class_name": "Activation", "config": {"name": "activation_740", "trainable": true, "activation": "relu"}, "inbound_nodes": [[["batch_normalization_740", 0, 0, {}]]]}, {"name": "conv2d_746", "class_name": "Conv2D", "config": {"name": "conv2d_746", "trainable": true, "filters": 12, "kernel_size": [3, 3], "strides": [1, 1], "padding": "same", "data_format": "channels_last", "dilation_rate": [1, 1], "activation": "linear", "use_bias": true, "kernel_initializer": {"class_name": "VarianceScaling", "config": {"scale": 1.0, "mode": "fan_avg", "distribution": "uniform", "seed": null}}, "bias_initializer": {"class_name": "Zeros", "config": {}}, "kernel_regularizer": null, "bias_regularizer": null, "activity_regularizer": null, "kernel_constraint": null, "bias_constraint": null}, "inbound_nodes": [[["activation_740", 0, 0, {}]]]}, {"name": "dropout_399", "class_name": "Dropout", "config": {"name": "dropout_399", "trainable": true, "rate": 0.5, "noise_shape": null, "seed": null}, "inbound_nodes": [[["conv2d_746", 0, 0, {}]]]}, {"name": "concatenate_333", "class_name": "Concatenate", "config": {"name": "concatenate_333", "trainable": true, "axis": -1}, "inbound_nodes": [[["dropout_399", 0, 0, {}], ["concatenate_332", 0, 0, {}]]]}, {"name": "batch_normalization_741", "class_name": "BatchNormalization", "config": {"name": "batch_normalization_741", "trainable": true, "axis": -1, "momentum": 0.99, "epsilon": 0.001, "center": true, "scale": true, "beta_initializer": {"class_name": "Zeros", "config": {}}, "gamma_initializer": {"class_name": "Ones", "config": {}}, "moving_mean_initializer": {"class_name": "Zeros", "config": {}}, "moving_variance_initializer": {"class_name": "Ones", "config": {}}, "beta_regularizer": null, "gamma_regularizer": null, "beta_constraint": null, "gamma_constraint": null}, "inbound_nodes": [[["concatenate_333", 0, 0, {}]]]}, {"name": "activation_741", "class_name": "Activation", "config": {"name": "activation_741", "trainable": true, "activation": "relu"}, "inbound_nodes": [[["batch_normalization_741", 0, 0, {}]]]}, {"name": "conv2d_747", "class_name": "Conv2D", "config": {"name": "conv2d_747", "trainable": true, "filters": 48, "kernel_size": [1, 1], "strides": [1, 1], "padding": "same", "data_format": "channels_last", "dilation_rate": [1, 1], "activation": "linear", "use_bias": true, "kernel_initializer": {"class_name": "VarianceScaling", "config": {"scale": 1.0, "mode": "fan_avg", "distribution": "uniform", "seed": null}}, "bias_initializer": {"class_name": "Zeros", "config": {}}, "kernel_regularizer": null, "bias_regularizer": null, "activity_regularizer": null, "kernel_constraint": null, "bias_constraint": null}, "inbound_nodes": [[["activation_741", 0, 0, {}]]]}, {"name": "batch_normalization_742", "class_name": "BatchNormalization", "config": {"name": "batch_normalization_742", "trainable": true, "axis": -1, "momentum": 0.99, "epsilon": 0.001, "center": true, "scale": true, "beta_initializer": {"class_name": "Zeros", "config": {}}, "gamma_initializer": {"class_name": "Ones", "config": {}}, "moving_mean_initializer": {"class_name": "Zeros", "config": {}}, "moving_variance_initializer": {"class_name": "Ones", "config": {}}, "beta_regularizer": null, "gamma_regularizer": null, "beta_constraint": null, "gamma_constraint": null}, "inbound_nodes": [[["conv2d_747", 0, 0, {}]]]}, {"name": "activation_742", "class_name": "Activation", "config": {"name": "activation_742", "trainable": true, "activation": "relu"}, "inbound_nodes": [[["batch_normalization_742", 0, 0, {}]]]}, {"name": "conv2d_748", "class_name": "Conv2D", "config": {"name": "conv2d_748", "trainable": true, "filters": 12, "kernel_size": [3, 3], "strides": [1, 1], "padding": "same", "data_format": "channels_last", "dilation_rate": [1, 1], "activation": "linear", "use_bias": true, "kernel_initializer": {"class_name": "VarianceScaling", "config": {"scale": 1.0, "mode": "fan_avg", "distribution": "uniform", "seed": null}}, "bias_initializer": {"class_name": "Zeros", "config": {}}, "kernel_regularizer": null, "bias_regularizer": null, "activity_regularizer": null, "kernel_constraint": null, "bias_constraint": null}, "inbound_nodes": [[["activation_742", 0, 0, {}]]]}, {"name": "dropout_400", "class_name": "Dropout", "config": {"name": "dropout_400", "trainable": true, "rate": 0.5, "noise_shape": null, "seed": null}, "inbound_nodes": [[["conv2d_748", 0, 0, {}]]]}, {"name": "concatenate_334", "class_name": "Concatenate", "config": {"name": "concatenate_334", "trainable": true, "axis": -1}, "inbound_nodes": [[["dropout_400", 0, 0, {}], ["concatenate_333", 0, 0, {}]]]}, {"name": "batch_normalization_743", "class_name": "BatchNormalization", "config": {"name": "batch_normalization_743", "trainable": true, "axis": -1, "momentum": 0.99, "epsilon": 0.001, "center": true, "scale": true, "beta_initializer": {"class_name": "Zeros", "config": {}}, "gamma_initializer": {"class_name": "Ones", "config": {}}, "moving_mean_initializer": {"class_name": "Zeros", "config": {}}, "moving_variance_initializer": {"class_name": "Ones", "config": {}}, "beta_regularizer": null, "gamma_regularizer": null, "beta_constraint": null, "gamma_constraint": null}, "inbound_nodes": [[["concatenate_334", 0, 0, {}]]]}, {"name": "activation_743", "class_name": "Activation", "config": {"name": "activation_743", "trainable": true, "activation": "relu"}, "inbound_nodes": [[["batch_normalization_743", 0, 0, {}]]]}, {"name": "conv2d_749", "class_name": "Conv2D", "config": {"name": "conv2d_749", "trainable": true, "filters": 48, "kernel_size": [1, 1], "strides": [1, 1], "padding": "same", "data_format": "channels_last", "dilation_rate": [1, 1], "activation": "linear", "use_bias": true, "kernel_initializer": {"class_name": "VarianceScaling", "config": {"scale": 1.0, "mode": "fan_avg", "distribution": "uniform", "seed": null}}, "bias_initializer": {"class_name": "Zeros", "config": {}}, "kernel_regularizer": null, "bias_regularizer": null, "activity_regularizer": null, "kernel_constraint": null, "bias_constraint": null}, "inbound_nodes": [[["activation_743", 0, 0, {}]]]}, {"name": "batch_normalization_744", "class_name": "BatchNormalization", "config": {"name": "batch_normalization_744", "trainable": true, "axis": -1, "momentum": 0.99, "epsilon": 0.001, "center": true, "scale": true, "beta_initializer": {"class_name": "Zeros", "config": {}}, "gamma_initializer": {"class_name": "Ones", "config": {}}, "moving_mean_initializer": {"class_name": "Zeros", "config": {}}, "moving_variance_initializer": {"class_name": "Ones", "config": {}}, "beta_regularizer": null, "gamma_regularizer": null, "beta_constraint": null, "gamma_constraint": null}, "inbound_nodes": [[["conv2d_749", 0, 0, {}]]]}, {"name": "activation_744", "class_name": "Activation", "config": {"name": "activation_744", "trainable": true, "activation": "relu"}, "inbound_nodes": [[["batch_normalization_744", 0, 0, {}]]]}, {"name": "conv2d_750", "class_name": "Conv2D", "config": {"name": "conv2d_750", "trainable": true, "filters": 12, "kernel_size": [3, 3], "strides": [1, 1], "padding": "same", "data_format": "channels_last", "dilation_rate": [1, 1], "activation": "linear", "use_bias": true, "kernel_initializer": {"class_name": "VarianceScaling", "config": {"scale": 1.0, "mode": "fan_avg", "distribution": "uniform", "seed": null}}, "bias_initializer": {"class_name": "Zeros", "config": {}}, "kernel_regularizer": null, "bias_regularizer": null, "activity_regularizer": null, "kernel_constraint": null, "bias_constraint": null}, "inbound_nodes": [[["activation_744", 0, 0, {}]]]}, {"name": "dropout_401", "class_name": "Dropout", "config": {"name": "dropout_401", "trainable": true, "rate": 0.5, "noise_shape": null, "seed": null}, "inbound_nodes": [[["conv2d_750", 0, 0, {}]]]}, {"name": "concatenate_335", "class_name": "Concatenate", "config": {"name": "concatenate_335", "trainable": true, "axis": -1}, "inbound_nodes": [[["dropout_401", 0, 0, {}], ["concatenate_334", 0, 0, {}]]]}, {"name": "batch_normalization_745", "class_name": "BatchNormalization", "config": {"name": "batch_normalization_745", "trainable": true, "axis": -1, "momentum": 0.99, "epsilon": 0.001, "center": true, "scale": true, "beta_initializer": {"class_name": "Zeros", "config": {}}, "gamma_initializer": {"class_name": "Ones", "config": {}}, "moving_mean_initializer": {"class_name": "Zeros", "config": {}}, "moving_variance_initializer": {"class_name": "Ones", "config": {}}, "beta_regularizer": null, "gamma_regularizer": null, "beta_constraint": null, "gamma_constraint": null}, "inbound_nodes": [[["concatenate_335", 0, 0, {}]]]}, {"name": "activation_745", "class_name": "Activation", "config": {"name": "activation_745", "trainable": true, "activation": "relu"}, "inbound_nodes": [[["batch_normalization_745", 0, 0, {}]]]}, {"name": "conv2d_751", "class_name": "Conv2D", "config": {"name": "conv2d_751", "trainable": true, "filters": 48, "kernel_size": [1, 1], "strides": [1, 1], "padding": "same", "data_format": "channels_last", "dilation_rate": [1, 1], "activation": "linear", "use_bias": true, "kernel_initializer": {"class_name": "VarianceScaling", "config": {"scale": 1.0, "mode": "fan_avg", "distribution": "uniform", "seed": null}}, "bias_initializer": {"class_name": "Zeros", "config": {}}, "kernel_regularizer": null, "bias_regularizer": null, "activity_regularizer": null, "kernel_constraint": null, "bias_constraint": null}, "inbound_nodes": [[["activation_745", 0, 0, {}]]]}, {"name": "batch_normalization_746", "class_name": "BatchNormalization", "config": {"name": "batch_normalization_746", "trainable": true, "axis": -1, "momentum": 0.99, "epsilon": 0.001, "center": true, "scale": true, "beta_initializer": {"class_name": "Zeros", "config": {}}, "gamma_initializer": {"class_name": "Ones", "config": {}}, "moving_mean_initializer": {"class_name": "Zeros", "config": {}}, "moving_variance_initializer": {"class_name": "Ones", "config": {}}, "beta_regularizer": null, "gamma_regularizer": null, "beta_constraint": null, "gamma_constraint": null}, "inbound_nodes": [[["conv2d_751", 0, 0, {}]]]}, {"name": "activation_746", "class_name": "Activation", "config": {"name": "activation_746", "trainable": true, "activation": "relu"}, "inbound_nodes": [[["batch_normalization_746", 0, 0, {}]]]}, {"name": "conv2d_752", "class_name": "Conv2D", "config": {"name": "conv2d_752", "trainable": true, "filters": 12, "kernel_size": [3, 3], "strides": [1, 1], "padding": "same", "data_format": "channels_last", "dilation_rate": [1, 1], "activation": "linear", "use_bias": true, "kernel_initializer": {"class_name": "VarianceScaling", "config": {"scale": 1.0, "mode": "fan_avg", "distribution": "uniform", "seed": null}}, "bias_initializer": {"class_name": "Zeros", "config": {}}, "kernel_regularizer": null, "bias_regularizer": null, "activity_regularizer": null, "kernel_constraint": null, "bias_constraint": null}, "inbound_nodes": [[["activation_746", 0, 0, {}]]]}, {"name": "dropout_402", "class_name": "Dropout", "config": {"name": "dropout_402", "trainable": true, "rate": 0.5, "noise_shape": null, "seed": null}, "inbound_nodes": [[["conv2d_752", 0, 0, {}]]]}, {"name": "concatenate_336", "class_name": "Concatenate", "config": {"name": "concatenate_336", "trainable": true, "axis": -1}, "inbound_nodes": [[["dropout_402", 0, 0, {}], ["concatenate_335", 0, 0, {}]]]}, {"name": "batch_normalization_747", "class_name": "BatchNormalization", "config": {"name": "batch_normalization_747", "trainable": true, "axis": -1, "momentum": 0.99, "epsilon": 0.001, "center": true, "scale": true, "beta_initializer": {"class_name": "Zeros", "config": {}}, "gamma_initializer": {"class_name": "Ones", "config": {}}, "moving_mean_initializer": {"class_name": "Zeros", "config": {}}, "moving_variance_initializer": {"class_name": "Ones", "config": {}}, "beta_regularizer": null, "gamma_regularizer": null, "beta_constraint": null, "gamma_constraint": null}, "inbound_nodes": [[["concatenate_336", 0, 0, {}]]]}, {"name": "activation_747", "class_name": "Activation", "config": {"name": "activation_747", "trainable": true, "activation": "relu"}, "inbound_nodes": [[["batch_normalization_747", 0, 0, {}]]]}, {"name": "conv2d_753", "class_name": "Conv2D", "config": {"name": "conv2d_753", "trainable": true, "filters": 55, "kernel_size": [1, 1], "strides": [1, 1], "padding": "same", "data_format": "channels_last", "dilation_rate": [1, 1], "activation": "linear", "use_bias": true, "kernel_initializer": {"class_name": "VarianceScaling", "config": {"scale": 1.0, "mode": "fan_avg", "distribution": "uniform", "seed": null}}, "bias_initializer": {"class_name": "Zeros", "config": {}}, "kernel_regularizer": null, "bias_regularizer": null, "activity_regularizer": null, "kernel_constraint": null, "bias_constraint": null}, "inbound_nodes": [[["activation_747", 0, 0, {}]]]}, {"name": "dropout_403", "class_name": "Dropout", "config": {"name": "dropout_403", "trainable": true, "rate": 0.5, "noise_shape": null, "seed": null}, "inbound_nodes": [[["conv2d_753", 0, 0, {}]]]}, {"name": "average_pooling2d_67", "class_name": "AveragePooling2D", "config": {"name": "average_pooling2d_67", "trainable": true, "pool_size": [2, 2], "padding": "valid", "strides": [2, 2], "data_format": "channels_last"}, "inbound_nodes": [[["dropout_403", 0, 0, {}]]]}, {"name": "batch_normalization_748", "class_name": "BatchNormalization", "config": {"name": "batch_normalization_748", "trainable": true, "axis": -1, "momentum": 0.99, "epsilon": 0.001, "center": true, "scale": true, "beta_initializer": {"class_name": "Zeros", "config": {}}, "gamma_initializer": {"class_name": "Ones", "config": {}}, "moving_mean_initializer": {"class_name": "Zeros", "config": {}}, "moving_variance_initializer": {"class_name": "Ones", "config": {}}, "beta_regularizer": null, "gamma_regularizer": null, "beta_constraint": null, "gamma_constraint": null}, "inbound_nodes": [[["average_pooling2d_67", 0, 0, {}]]]}, {"name": "activation_748", "class_name": "Activation", "config": {"name": "activation_748", "trainable": true, "activation": "relu"}, "inbound_nodes": [[["batch_normalization_748", 0, 0, {}]]]}, {"name": "conv2d_754", "class_name": "Conv2D", "config": {"name": "conv2d_754", "trainable": true, "filters": 48, "kernel_size": [1, 1], "strides": [1, 1], "padding": "same", "data_format": "channels_last", "dilation_rate": [1, 1], "activation": "linear", "use_bias": true, "kernel_initializer": {"class_name": "VarianceScaling", "config": {"scale": 1.0, "mode": "fan_avg", "distribution": "uniform", "seed": null}}, "bias_initializer": {"class_name": "Zeros", "config": {}}, "kernel_regularizer": null, "bias_regularizer": null, "activity_regularizer": null, "kernel_constraint": null, "bias_constraint": null}, "inbound_nodes": [[["activation_748", 0, 0, {}]]]}, {"name": "batch_normalization_749", "class_name": "BatchNormalization", "config": {"name": "batch_normalization_749", "trainable": true, "axis": -1, "momentum": 0.99, "epsilon": 0.001, "center": true, "scale": true, "beta_initializer": {"class_name": "Zeros", "config": {}}, "gamma_initializer": {"class_name": "Ones", "config": {}}, "moving_mean_initializer": {"class_name": "Zeros", "config": {}}, "moving_variance_initializer": {"class_name": "Ones", "config": {}}, "beta_regularizer": null, "gamma_regularizer": null, "beta_constraint": null, "gamma_constraint": null}, "inbound_nodes": [[["conv2d_754", 0, 0, {}]]]}, {"name": "activation_749", "class_name": "Activation", "config": {"name": "activation_749", "trainable": true, "activation": "relu"}, "inbound_nodes": [[["batch_normalization_749", 0, 0, {}]]]}, {"name": "conv2d_755", "class_name": "Conv2D", "config": {"name": "conv2d_755", "trainable": true, "filters": 12, "kernel_size": [3, 3], "strides": [1, 1], "padding": "same", "data_format": "channels_last", "dilation_rate": [1, 1], "activation": "linear", "use_bias": true, "kernel_initializer": {"class_name": "VarianceScaling", "config": {"scale": 1.0, "mode": "fan_avg", "distribution": "uniform", "seed": null}}, "bias_initializer": {"class_name": "Zeros", "config": {}}, "kernel_regularizer": null, "bias_regularizer": null, "activity_regularizer": null, "kernel_constraint": null, "bias_constraint": null}, "inbound_nodes": [[["activation_749", 0, 0, {}]]]}, {"name": "dropout_404", "class_name": "Dropout", "config": {"name": "dropout_404", "trainable": true, "rate": 0.5, "noise_shape": null, "seed": null}, "inbound_nodes": [[["conv2d_755", 0, 0, {}]]]}, {"name": "concatenate_337", "class_name": "Concatenate", "config": {"name": "concatenate_337", "trainable": true, "axis": -1}, "inbound_nodes": [[["dropout_404", 0, 0, {}], ["average_pooling2d_67", 0, 0, {}]]]}, {"name": "batch_normalization_750", "class_name": "BatchNormalization", "config": {"name": "batch_normalization_750", "trainable": true, "axis": -1, "momentum": 0.99, "epsilon": 0.001, "center": true, "scale": true, "beta_initializer": {"class_name": "Zeros", "config": {}}, "gamma_initializer": {"class_name": "Ones", "config": {}}, "moving_mean_initializer": {"class_name": "Zeros", "config": {}}, "moving_variance_initializer": {"class_name": "Ones", "config": {}}, "beta_regularizer": null, "gamma_regularizer": null, "beta_constraint": null, "gamma_constraint": null}, "inbound_nodes": [[["concatenate_337", 0, 0, {}]]]}, {"name": "activation_750", "class_name": "Activation", "config": {"name": "activation_750", "trainable": true, "activation": "relu"}, "inbound_nodes": [[["batch_normalization_750", 0, 0, {}]]]}, {"name": "conv2d_756", "class_name": "Conv2D", "config": {"name": "conv2d_756", "trainable": true, "filters": 48, "kernel_size": [1, 1], "strides": [1, 1], "padding": "same", "data_format": "channels_last", "dilation_rate": [1, 1], "activation": "linear", "use_bias": true, "kernel_initializer": {"class_name": "VarianceScaling", "config": {"scale": 1.0, "mode": "fan_avg", "distribution": "uniform", "seed": null}}, "bias_initializer": {"class_name": "Zeros", "config": {}}, "kernel_regularizer": null, "bias_regularizer": null, "activity_regularizer": null, "kernel_constraint": null, "bias_constraint": null}, "inbound_nodes": [[["activation_750", 0, 0, {}]]]}, {"name": "batch_normalization_751", "class_name": "BatchNormalization", "config": {"name": "batch_normalization_751", "trainable": true, "axis": -1, "momentum": 0.99, "epsilon": 0.001, "center": true, "scale": true, "beta_initializer": {"class_name": "Zeros", "config": {}}, "gamma_initializer": {"class_name": "Ones", "config": {}}, "moving_mean_initializer": {"class_name": "Zeros", "config": {}}, "moving_variance_initializer": {"class_name": "Ones", "config": {}}, "beta_regularizer": null, "gamma_regularizer": null, "beta_constraint": null, "gamma_constraint": null}, "inbound_nodes": [[["conv2d_756", 0, 0, {}]]]}, {"name": "activation_751", "class_name": "Activation", "config": {"name": "activation_751", "trainable": true, "activation": "relu"}, "inbound_nodes": [[["batch_normalization_751", 0, 0, {}]]]}, {"name": "conv2d_757", "class_name": "Conv2D", "config": {"name": "conv2d_757", "trainable": true, "filters": 12, "kernel_size": [3, 3], "strides": [1, 1], "padding": "same", "data_format": "channels_last", "dilation_rate": [1, 1], "activation": "linear", "use_bias": true, "kernel_initializer": {"class_name": "VarianceScaling", "config": {"scale": 1.0, "mode": "fan_avg", "distribution": "uniform", "seed": null}}, "bias_initializer": {"class_name": "Zeros", "config": {}}, "kernel_regularizer": null, "bias_regularizer": null, "activity_regularizer": null, "kernel_constraint": null, "bias_constraint": null}, "inbound_nodes": [[["activation_751", 0, 0, {}]]]}, {"name": "dropout_405", "class_name": "Dropout", "config": {"name": "dropout_405", "trainable": true, "rate": 0.5, "noise_shape": null, "seed": null}, "inbound_nodes": [[["conv2d_757", 0, 0, {}]]]}, {"name": "concatenate_338", "class_name": "Concatenate", "config": {"name": "concatenate_338", "trainable": true, "axis": -1}, "inbound_nodes": [[["dropout_405", 0, 0, {}], ["concatenate_337", 0, 0, {}]]]}, {"name": "batch_normalization_752", "class_name": "BatchNormalization", "config": {"name": "batch_normalization_752", "trainable": true, "axis": -1, "momentum": 0.99, "epsilon": 0.001, "center": true, "scale": true, "beta_initializer": {"class_name": "Zeros", "config": {}}, "gamma_initializer": {"class_name": "Ones", "config": {}}, "moving_mean_initializer": {"class_name": "Zeros", "config": {}}, "moving_variance_initializer": {"class_name": "Ones", "config": {}}, "beta_regularizer": null, "gamma_regularizer": null, "beta_constraint": null, "gamma_constraint": null}, "inbound_nodes": [[["concatenate_338", 0, 0, {}]]]}, {"name": "activation_752", "class_name": "Activation", "config": {"name": "activation_752", "trainable": true, "activation": "relu"}, "inbound_nodes": [[["batch_normalization_752", 0, 0, {}]]]}, {"name": "conv2d_758", "class_name": "Conv2D", "config": {"name": "conv2d_758", "trainable": true, "filters": 48, "kernel_size": [1, 1], "strides": [1, 1], "padding": "same", "data_format": "channels_last", "dilation_rate": [1, 1], "activation": "linear", "use_bias": true, "kernel_initializer": {"class_name": "VarianceScaling", "config": {"scale": 1.0, "mode": "fan_avg", "distribution": "uniform", "seed": null}}, "bias_initializer": {"class_name": "Zeros", "config": {}}, "kernel_regularizer": null, "bias_regularizer": null, "activity_regularizer": null, "kernel_constraint": null, "bias_constraint": null}, "inbound_nodes": [[["activation_752", 0, 0, {}]]]}, {"name": "batch_normalization_753", "class_name": "BatchNormalization", "config": {"name": "batch_normalization_753", "trainable": true, "axis": -1, "momentum": 0.99, "epsilon": 0.001, "center": true, "scale": true, "beta_initializer": {"class_name": "Zeros", "config": {}}, "gamma_initializer": {"class_name": "Ones", "config": {}}, "moving_mean_initializer": {"class_name": "Zeros", "config": {}}, "moving_variance_initializer": {"class_name": "Ones", "config": {}}, "beta_regularizer": null, "gamma_regularizer": null, "beta_constraint": null, "gamma_constraint": null}, "inbound_nodes": [[["conv2d_758", 0, 0, {}]]]}, {"name": "activation_753", "class_name": "Activation", "config": {"name": "activation_753", "trainable": true, "activation": "relu"}, "inbound_nodes": [[["batch_normalization_753", 0, 0, {}]]]}, {"name": "conv2d_759", "class_name": "Conv2D", "config": {"name": "conv2d_759", "trainable": true, "filters": 12, "kernel_size": [3, 3], "strides": [1, 1], "padding": "same", "data_format": "channels_last", "dilation_rate": [1, 1], "activation": "linear", "use_bias": true, "kernel_initializer": {"class_name": "VarianceScaling", "config": {"scale": 1.0, "mode": "fan_avg", "distribution": "uniform", "seed": null}}, "bias_initializer": {"class_name": "Zeros", "config": {}}, "kernel_regularizer": null, "bias_regularizer": null, "activity_regularizer": null, "kernel_constraint": null, "bias_constraint": null}, "inbound_nodes": [[["activation_753", 0, 0, {}]]]}, {"name": "dropout_406", "class_name": "Dropout", "config": {"name": "dropout_406", "trainable": true, "rate": 0.5, "noise_shape": null, "seed": null}, "inbound_nodes": [[["conv2d_759", 0, 0, {}]]]}, {"name": "concatenate_339", "class_name": "Concatenate", "config": {"name": "concatenate_339", "trainable": true, "axis": -1}, "inbound_nodes": [[["dropout_406", 0, 0, {}], ["concatenate_338", 0, 0, {}]]]}, {"name": "batch_normalization_754", "class_name": "BatchNormalization", "config": {"name": "batch_normalization_754", "trainable": true, "axis": -1, "momentum": 0.99, "epsilon": 0.001, "center": true, "scale": true, "beta_initializer": {"class_name": "Zeros", "config": {}}, "gamma_initializer": {"class_name": "Ones", "config": {}}, "moving_mean_initializer": {"class_name": "Zeros", "config": {}}, "moving_variance_initializer": {"class_name": "Ones", "config": {}}, "beta_regularizer": null, "gamma_regularizer": null, "beta_constraint": null, "gamma_constraint": null}, "inbound_nodes": [[["concatenate_339", 0, 0, {}]]]}, {"name": "activation_754", "class_name": "Activation", "config": {"name": "activation_754", "trainable": true, "activation": "relu"}, "inbound_nodes": [[["batch_normalization_754", 0, 0, {}]]]}, {"name": "conv2d_760", "class_name": "Conv2D", "config": {"name": "conv2d_760", "trainable": true, "filters": 48, "kernel_size": [1, 1], "strides": [1, 1], "padding": "same", "data_format": "channels_last", "dilation_rate": [1, 1], "activation": "linear", "use_bias": true, "kernel_initializer": {"class_name": "VarianceScaling", "config": {"scale": 1.0, "mode": "fan_avg", "distribution": "uniform", "seed": null}}, "bias_initializer": {"class_name": "Zeros", "config": {}}, "kernel_regularizer": null, "bias_regularizer": null, "activity_regularizer": null, "kernel_constraint": null, "bias_constraint": null}, "inbound_nodes": [[["activation_754", 0, 0, {}]]]}, {"name": "batch_normalization_755", "class_name": "BatchNormalization", "config": {"name": "batch_normalization_755", "trainable": true, "axis": -1, "momentum": 0.99, "epsilon": 0.001, "center": true, "scale": true, "beta_initializer": {"class_name": "Zeros", "config": {}}, "gamma_initializer": {"class_name": "Ones", "config": {}}, "moving_mean_initializer": {"class_name": "Zeros", "config": {}}, "moving_variance_initializer": {"class_name": "Ones", "config": {}}, "beta_regularizer": null, "gamma_regularizer": null, "beta_constraint": null, "gamma_constraint": null}, "inbound_nodes": [[["conv2d_760", 0, 0, {}]]]}, {"name": "activation_755", "class_name": "Activation", "config": {"name": "activation_755", "trainable": true, "activation": "relu"}, "inbound_nodes": [[["batch_normalization_755", 0, 0, {}]]]}, {"name": "conv2d_761", "class_name": "Conv2D", "config": {"name": "conv2d_761", "trainable": true, "filters": 12, "kernel_size": [3, 3], "strides": [1, 1], "padding": "same", "data_format": "channels_last", "dilation_rate": [1, 1], "activation": "linear", "use_bias": true, "kernel_initializer": {"class_name": "VarianceScaling", "config": {"scale": 1.0, "mode": "fan_avg", "distribution": "uniform", "seed": null}}, "bias_initializer": {"class_name": "Zeros", "config": {}}, "kernel_regularizer": null, "bias_regularizer": null, "activity_regularizer": null, "kernel_constraint": null, "bias_constraint": null}, "inbound_nodes": [[["activation_755", 0, 0, {}]]]}, {"name": "dropout_407", "class_name": "Dropout", "config": {"name": "dropout_407", "trainable": true, "rate": 0.5, "noise_shape": null, "seed": null}, "inbound_nodes": [[["conv2d_761", 0, 0, {}]]]}, {"name": "concatenate_340", "class_name": "Concatenate", "config": {"name": "concatenate_340", "trainable": true, "axis": -1}, "inbound_nodes": [[["dropout_407", 0, 0, {}], ["concatenate_339", 0, 0, {}]]]}, {"name": "batch_normalization_756", "class_name": "BatchNormalization", "config": {"name": "batch_normalization_756", "trainable": true, "axis": -1, "momentum": 0.99, "epsilon": 0.001, "center": true, "scale": true, "beta_initializer": {"class_name": "Zeros", "config": {}}, "gamma_initializer": {"class_name": "Ones", "config": {}}, "moving_mean_initializer": {"class_name": "Zeros", "config": {}}, "moving_variance_initializer": {"class_name": "Ones", "config": {}}, "beta_regularizer": null, "gamma_regularizer": null, "beta_constraint": null, "gamma_constraint": null}, "inbound_nodes": [[["concatenate_340", 0, 0, {}]]]}, {"name": "activation_756", "class_name": "Activation", "config": {"name": "activation_756", "trainable": true, "activation": "relu"}, "inbound_nodes": [[["batch_normalization_756", 0, 0, {}]]]}, {"name": "conv2d_762", "class_name": "Conv2D", "config": {"name": "conv2d_762", "trainable": true, "filters": 48, "kernel_size": [1, 1], "strides": [1, 1], "padding": "same", "data_format": "channels_last", "dilation_rate": [1, 1], "activation": "linear", "use_bias": true, "kernel_initializer": {"class_name": "VarianceScaling", "config": {"scale": 1.0, "mode": "fan_avg", "distribution": "uniform", "seed": null}}, "bias_initializer": {"class_name": "Zeros", "config": {}}, "kernel_regularizer": null, "bias_regularizer": null, "activity_regularizer": null, "kernel_constraint": null, "bias_constraint": null}, "inbound_nodes": [[["activation_756", 0, 0, {}]]]}, {"name": "batch_normalization_757", "class_name": "BatchNormalization", "config": {"name": "batch_normalization_757", "trainable": true, "axis": -1, "momentum": 0.99, "epsilon": 0.001, "center": true, "scale": true, "beta_initializer": {"class_name": "Zeros", "config": {}}, "gamma_initializer": {"class_name": "Ones", "config": {}}, "moving_mean_initializer": {"class_name": "Zeros", "config": {}}, "moving_variance_initializer": {"class_name": "Ones", "config": {}}, "beta_regularizer": null, "gamma_regularizer": null, "beta_constraint": null, "gamma_constraint": null}, "inbound_nodes": [[["conv2d_762", 0, 0, {}]]]}, {"name": "activation_757", "class_name": "Activation", "config": {"name": "activation_757", "trainable": true, "activation": "relu"}, "inbound_nodes": [[["batch_normalization_757", 0, 0, {}]]]}, {"name": "conv2d_763", "class_name": "Conv2D", "config": {"name": "conv2d_763", "trainable": true, "filters": 12, "kernel_size": [3, 3], "strides": [1, 1], "padding": "same", "data_format": "channels_last", "dilation_rate": [1, 1], "activation": "linear", "use_bias": true, "kernel_initializer": {"class_name": "VarianceScaling", "config": {"scale": 1.0, "mode": "fan_avg", "distribution": "uniform", "seed": null}}, "bias_initializer": {"class_name": "Zeros", "config": {}}, "kernel_regularizer": null, "bias_regularizer": null, "activity_regularizer": null, "kernel_constraint": null, "bias_constraint": null}, "inbound_nodes": [[["activation_757", 0, 0, {}]]]}, {"name": "dropout_408", "class_name": "Dropout", "config": {"name": "dropout_408", "trainable": true, "rate": 0.5, "noise_shape": null, "seed": null}, "inbound_nodes": [[["conv2d_763", 0, 0, {}]]]}, {"name": "concatenate_341", "class_name": "Concatenate", "config": {"name": "concatenate_341", "trainable": true, "axis": -1}, "inbound_nodes": [[["dropout_408", 0, 0, {}], ["concatenate_340", 0, 0, {}]]]}, {"name": "batch_normalization_758", "class_name": "BatchNormalization", "config": {"name": "batch_normalization_758", "trainable": true, "axis": -1, "momentum": 0.99, "epsilon": 0.001, "center": true, "scale": true, "beta_initializer": {"class_name": "Zeros", "config": {}}, "gamma_initializer": {"class_name": "Ones", "config": {}}, "moving_mean_initializer": {"class_name": "Zeros", "config": {}}, "moving_variance_initializer": {"class_name": "Ones", "config": {}}, "beta_regularizer": null, "gamma_regularizer": null, "beta_constraint": null, "gamma_constraint": null}, "inbound_nodes": [[["concatenate_341", 0, 0, {}]]]}, {"name": "activation_758", "class_name": "Activation", "config": {"name": "activation_758", "trainable": true, "activation": "relu"}, "inbound_nodes": [[["batch_normalization_758", 0, 0, {}]]]}, {"name": "conv2d_764", "class_name": "Conv2D", "config": {"name": "conv2d_764", "trainable": true, "filters": 57, "kernel_size": [1, 1], "strides": [1, 1], "padding": "same", "data_format": "channels_last", "dilation_rate": [1, 1], "activation": "linear", "use_bias": true, "kernel_initializer": {"class_name": "VarianceScaling", "config": {"scale": 1.0, "mode": "fan_avg", "distribution": "uniform", "seed": null}}, "bias_initializer": {"class_name": "Zeros", "config": {}}, "kernel_regularizer": null, "bias_regularizer": null, "activity_regularizer": null, "kernel_constraint": null, "bias_constraint": null}, "inbound_nodes": [[["activation_758", 0, 0, {}]]]}, {"name": "dropout_409", "class_name": "Dropout", "config": {"name": "dropout_409", "trainable": true, "rate": 0.5, "noise_shape": null, "seed": null}, "inbound_nodes": [[["conv2d_764", 0, 0, {}]]]}, {"name": "average_pooling2d_68", "class_name": "AveragePooling2D", "config": {"name": "average_pooling2d_68", "trainable": true, "pool_size": [2, 2], "padding": "valid", "strides": [2, 2], "data_format": "channels_last"}, "inbound_nodes": [[["dropout_409", 0, 0, {}]]]}, {"name": "batch_normalization_759", "class_name": "BatchNormalization", "config": {"name": "batch_normalization_759", "trainable": true, "axis": -1, "momentum": 0.99, "epsilon": 0.001, "center": true, "scale": true, "beta_initializer": {"class_name": "Zeros", "config": {}}, "gamma_initializer": {"class_name": "Ones", "config": {}}, "moving_mean_initializer": {"class_name": "Zeros", "config": {}}, "moving_variance_initializer": {"class_name": "Ones", "config": {}}, "beta_regularizer": null, "gamma_regularizer": null, "beta_constraint": null, "gamma_constraint": null}, "inbound_nodes": [[["average_pooling2d_68", 0, 0, {}]]]}, {"name": "activation_759", "class_name": "Activation", "config": {"name": "activation_759", "trainable": true, "activation": "relu"}, "inbound_nodes": [[["batch_normalization_759", 0, 0, {}]]]}, {"name": "conv2d_765", "class_name": "Conv2D", "config": {"name": "conv2d_765", "trainable": true, "filters": 48, "kernel_size": [1, 1], "strides": [1, 1], "padding": "same", "data_format": "channels_last", "dilation_rate": [1, 1], "activation": "linear", "use_bias": true, "kernel_initializer": {"class_name": "VarianceScaling", "config": {"scale": 1.0, "mode": "fan_avg", "distribution": "uniform", "seed": null}}, "bias_initializer": {"class_name": "Zeros", "config": {}}, "kernel_regularizer": null, "bias_regularizer": null, "activity_regularizer": null, "kernel_constraint": null, "bias_constraint": null}, "inbound_nodes": [[["activation_759", 0, 0, {}]]]}, {"name": "batch_normalization_760", "class_name": "BatchNormalization", "config": {"name": "batch_normalization_760", "trainable": true, "axis": -1, "momentum": 0.99, "epsilon": 0.001, "center": true, "scale": true, "beta_initializer": {"class_name": "Zeros", "config": {}}, "gamma_initializer": {"class_name": "Ones", "config": {}}, "moving_mean_initializer": {"class_name": "Zeros", "config": {}}, "moving_variance_initializer": {"class_name": "Ones", "config": {}}, "beta_regularizer": null, "gamma_regularizer": null, "beta_constraint": null, "gamma_constraint": null}, "inbound_nodes": [[["conv2d_765", 0, 0, {}]]]}, {"name": "activation_760", "class_name": "Activation", "config": {"name": "activation_760", "trainable": true, "activation": "relu"}, "inbound_nodes": [[["batch_normalization_760", 0, 0, {}]]]}, {"name": "conv2d_766", "class_name": "Conv2D", "config": {"name": "conv2d_766", "trainable": true, "filters": 12, "kernel_size": [3, 3], "strides": [1, 1], "padding": "same", "data_format": "channels_last", "dilation_rate": [1, 1], "activation": "linear", "use_bias": true, "kernel_initializer": {"class_name": "VarianceScaling", "config": {"scale": 1.0, "mode": "fan_avg", "distribution": "uniform", "seed": null}}, "bias_initializer": {"class_name": "Zeros", "config": {}}, "kernel_regularizer": null, "bias_regularizer": null, "activity_regularizer": null, "kernel_constraint": null, "bias_constraint": null}, "inbound_nodes": [[["activation_760", 0, 0, {}]]]}, {"name": "dropout_410", "class_name": "Dropout", "config": {"name": "dropout_410", "trainable": true, "rate": 0.5, "noise_shape": null, "seed": null}, "inbound_nodes": [[["conv2d_766", 0, 0, {}]]]}, {"name": "concatenate_342", "class_name": "Concatenate", "config": {"name": "concatenate_342", "trainable": true, "axis": -1}, "inbound_nodes": [[["dropout_410", 0, 0, {}], ["average_pooling2d_68", 0, 0, {}]]]}, {"name": "batch_normalization_761", "class_name": "BatchNormalization", "config": {"name": "batch_normalization_761", "trainable": true, "axis": -1, "momentum": 0.99, "epsilon": 0.001, "center": true, "scale": true, "beta_initializer": {"class_name": "Zeros", "config": {}}, "gamma_initializer": {"class_name": "Ones", "config": {}}, "moving_mean_initializer": {"class_name": "Zeros", "config": {}}, "moving_variance_initializer": {"class_name": "Ones", "config": {}}, "beta_regularizer": null, "gamma_regularizer": null, "beta_constraint": null, "gamma_constraint": null}, "inbound_nodes": [[["concatenate_342", 0, 0, {}]]]}, {"name": "activation_761", "class_name": "Activation", "config": {"name": "activation_761", "trainable": true, "activation": "relu"}, "inbound_nodes": [[["batch_normalization_761", 0, 0, {}]]]}, {"name": "conv2d_767", "class_name": "Conv2D", "config": {"name": "conv2d_767", "trainable": true, "filters": 48, "kernel_size": [1, 1], "strides": [1, 1], "padding": "same", "data_format": "channels_last", "dilation_rate": [1, 1], "activation": "linear", "use_bias": true, "kernel_initializer": {"class_name": "VarianceScaling", "config": {"scale": 1.0, "mode": "fan_avg", "distribution": "uniform", "seed": null}}, "bias_initializer": {"class_name": "Zeros", "config": {}}, "kernel_regularizer": null, "bias_regularizer": null, "activity_regularizer": null, "kernel_constraint": null, "bias_constraint": null}, "inbound_nodes": [[["activation_761", 0, 0, {}]]]}, {"name": "batch_normalization_762", "class_name": "BatchNormalization", "config": {"name": "batch_normalization_762", "trainable": true, "axis": -1, "momentum": 0.99, "epsilon": 0.001, "center": true, "scale": true, "beta_initializer": {"class_name": "Zeros", "config": {}}, "gamma_initializer": {"class_name": "Ones", "config": {}}, "moving_mean_initializer": {"class_name": "Zeros", "config": {}}, "moving_variance_initializer": {"class_name": "Ones", "config": {}}, "beta_regularizer": null, "gamma_regularizer": null, "beta_constraint": null, "gamma_constraint": null}, "inbound_nodes": [[["conv2d_767", 0, 0, {}]]]}, {"name": "activation_762", "class_name": "Activation", "config": {"name": "activation_762", "trainable": true, "activation": "relu"}, "inbound_nodes": [[["batch_normalization_762", 0, 0, {}]]]}, {"name": "conv2d_768", "class_name": "Conv2D", "config": {"name": "conv2d_768", "trainable": true, "filters": 12, "kernel_size": [3, 3], "strides": [1, 1], "padding": "same", "data_format": "channels_last", "dilation_rate": [1, 1], "activation": "linear", "use_bias": true, "kernel_initializer": {"class_name": "VarianceScaling", "config": {"scale": 1.0, "mode": "fan_avg", "distribution": "uniform", "seed": null}}, "bias_initializer": {"class_name": "Zeros", "config": {}}, "kernel_regularizer": null, "bias_regularizer": null, "activity_regularizer": null, "kernel_constraint": null, "bias_constraint": null}, "inbound_nodes": [[["activation_762", 0, 0, {}]]]}, {"name": "dropout_411", "class_name": "Dropout", "config": {"name": "dropout_411", "trainable": true, "rate": 0.5, "noise_shape": null, "seed": null}, "inbound_nodes": [[["conv2d_768", 0, 0, {}]]]}, {"name": "concatenate_343", "class_name": "Concatenate", "config": {"name": "concatenate_343", "trainable": true, "axis": -1}, "inbound_nodes": [[["dropout_411", 0, 0, {}], ["concatenate_342", 0, 0, {}]]]}, {"name": "batch_normalization_763", "class_name": "BatchNormalization", "config": {"name": "batch_normalization_763", "trainable": true, "axis": -1, "momentum": 0.99, "epsilon": 0.001, "center": true, "scale": true, "beta_initializer": {"class_name": "Zeros", "config": {}}, "gamma_initializer": {"class_name": "Ones", "config": {}}, "moving_mean_initializer": {"class_name": "Zeros", "config": {}}, "moving_variance_initializer": {"class_name": "Ones", "config": {}}, "beta_regularizer": null, "gamma_regularizer": null, "beta_constraint": null, "gamma_constraint": null}, "inbound_nodes": [[["concatenate_343", 0, 0, {}]]]}, {"name": "activation_763", "class_name": "Activation", "config": {"name": "activation_763", "trainable": true, "activation": "relu"}, "inbound_nodes": [[["batch_normalization_763", 0, 0, {}]]]}, {"name": "conv2d_769", "class_name": "Conv2D", "config": {"name": "conv2d_769", "trainable": true, "filters": 48, "kernel_size": [1, 1], "strides": [1, 1], "padding": "same", "data_format": "channels_last", "dilation_rate": [1, 1], "activation": "linear", "use_bias": true, "kernel_initializer": {"class_name": "VarianceScaling", "config": {"scale": 1.0, "mode": "fan_avg", "distribution": "uniform", "seed": null}}, "bias_initializer": {"class_name": "Zeros", "config": {}}, "kernel_regularizer": null, "bias_regularizer": null, "activity_regularizer": null, "kernel_constraint": null, "bias_constraint": null}, "inbound_nodes": [[["activation_763", 0, 0, {}]]]}, {"name": "batch_normalization_764", "class_name": "BatchNormalization", "config": {"name": "batch_normalization_764", "trainable": true, "axis": -1, "momentum": 0.99, "epsilon": 0.001, "center": true, "scale": true, "beta_initializer": {"class_name": "Zeros", "config": {}}, "gamma_initializer": {"class_name": "Ones", "config": {}}, "moving_mean_initializer": {"class_name": "Zeros", "config": {}}, "moving_variance_initializer": {"class_name": "Ones", "config": {}}, "beta_regularizer": null, "gamma_regularizer": null, "beta_constraint": null, "gamma_constraint": null}, "inbound_nodes": [[["conv2d_769", 0, 0, {}]]]}, {"name": "activation_764", "class_name": "Activation", "config": {"name": "activation_764", "trainable": true, "activation": "relu"}, "inbound_nodes": [[["batch_normalization_764", 0, 0, {}]]]}, {"name": "conv2d_770", "class_name": "Conv2D", "config": {"name": "conv2d_770", "trainable": true, "filters": 12, "kernel_size": [3, 3], "strides": [1, 1], "padding": "same", "data_format": "channels_last", "dilation_rate": [1, 1], "activation": "linear", "use_bias": true, "kernel_initializer": {"class_name": "VarianceScaling", "config": {"scale": 1.0, "mode": "fan_avg", "distribution": "uniform", "seed": null}}, "bias_initializer": {"class_name": "Zeros", "config": {}}, "kernel_regularizer": null, "bias_regularizer": null, "activity_regularizer": null, "kernel_constraint": null, "bias_constraint": null}, "inbound_nodes": [[["activation_764", 0, 0, {}]]]}, {"name": "dropout_412", "class_name": "Dropout", "config": {"name": "dropout_412", "trainable": true, "rate": 0.5, "noise_shape": null, "seed": null}, "inbound_nodes": [[["conv2d_770", 0, 0, {}]]]}, {"name": "concatenate_344", "class_name": "Concatenate", "config": {"name": "concatenate_344", "trainable": true, "axis": -1}, "inbound_nodes": [[["dropout_412", 0, 0, {}], ["concatenate_343", 0, 0, {}]]]}, {"name": "batch_normalization_765", "class_name": "BatchNormalization", "config": {"name": "batch_normalization_765", "trainable": true, "axis": -1, "momentum": 0.99, "epsilon": 0.001, "center": true, "scale": true, "beta_initializer": {"class_name": "Zeros", "config": {}}, "gamma_initializer": {"class_name": "Ones", "config": {}}, "moving_mean_initializer": {"class_name": "Zeros", "config": {}}, "moving_variance_initializer": {"class_name": "Ones", "config": {}}, "beta_regularizer": null, "gamma_regularizer": null, "beta_constraint": null, "gamma_constraint": null}, "inbound_nodes": [[["concatenate_344", 0, 0, {}]]]}, {"name": "activation_765", "class_name": "Activation", "config": {"name": "activation_765", "trainable": true, "activation": "relu"}, "inbound_nodes": [[["batch_normalization_765", 0, 0, {}]]]}, {"name": "conv2d_771", "class_name": "Conv2D", "config": {"name": "conv2d_771", "trainable": true, "filters": 48, "kernel_size": [1, 1], "strides": [1, 1], "padding": "same", "data_format": "channels_last", "dilation_rate": [1, 1], "activation": "linear", "use_bias": true, "kernel_initializer": {"class_name": "VarianceScaling", "config": {"scale": 1.0, "mode": "fan_avg", "distribution": "uniform", "seed": null}}, "bias_initializer": {"class_name": "Zeros", "config": {}}, "kernel_regularizer": null, "bias_regularizer": null, "activity_regularizer": null, "kernel_constraint": null, "bias_constraint": null}, "inbound_nodes": [[["activation_765", 0, 0, {}]]]}, {"name": "batch_normalization_766", "class_name": "BatchNormalization", "config": {"name": "batch_normalization_766", "trainable": true, "axis": -1, "momentum": 0.99, "epsilon": 0.001, "center": true, "scale": true, "beta_initializer": {"class_name": "Zeros", "config": {}}, "gamma_initializer": {"class_name": "Ones", "config": {}}, "moving_mean_initializer": {"class_name": "Zeros", "config": {}}, "moving_variance_initializer": {"class_name": "Ones", "config": {}}, "beta_regularizer": null, "gamma_regularizer": null, "beta_constraint": null, "gamma_constraint": null}, "inbound_nodes": [[["conv2d_771", 0, 0, {}]]]}, {"name": "activation_766", "class_name": "Activation", "config": {"name": "activation_766", "trainable": true, "activation": "relu"}, "inbound_nodes": [[["batch_normalization_766", 0, 0, {}]]]}, {"name": "conv2d_772", "class_name": "Conv2D", "config": {"name": "conv2d_772", "trainable": true, "filters": 12, "kernel_size": [3, 3], "strides": [1, 1], "padding": "same", "data_format": "channels_last", "dilation_rate": [1, 1], "activation": "linear", "use_bias": true, "kernel_initializer": {"class_name": "VarianceScaling", "config": {"scale": 1.0, "mode": "fan_avg", "distribution": "uniform", "seed": null}}, "bias_initializer": {"class_name": "Zeros", "config": {}}, "kernel_regularizer": null, "bias_regularizer": null, "activity_regularizer": null, "kernel_constraint": null, "bias_constraint": null}, "inbound_nodes": [[["activation_766", 0, 0, {}]]]}, {"name": "dropout_413", "class_name": "Dropout", "config": {"name": "dropout_413", "trainable": true, "rate": 0.5, "noise_shape": null, "seed": null}, "inbound_nodes": [[["conv2d_772", 0, 0, {}]]]}, {"name": "concatenate_345", "class_name": "Concatenate", "config": {"name": "concatenate_345", "trainable": true, "axis": -1}, "inbound_nodes": [[["dropout_413", 0, 0, {}], ["concatenate_344", 0, 0, {}]]]}, {"name": "batch_normalization_767", "class_name": "BatchNormalization", "config": {"name": "batch_normalization_767", "trainable": true, "axis": -1, "momentum": 0.99, "epsilon": 0.001, "center": true, "scale": true, "beta_initializer": {"class_name": "Zeros", "config": {}}, "gamma_initializer": {"class_name": "Ones", "config": {}}, "moving_mean_initializer": {"class_name": "Zeros", "config": {}}, "moving_variance_initializer": {"class_name": "Ones", "config": {}}, "beta_regularizer": null, "gamma_regularizer": null, "beta_constraint": null, "gamma_constraint": null}, "inbound_nodes": [[["concatenate_345", 0, 0, {}]]]}, {"name": "activation_767", "class_name": "Activation", "config": {"name": "activation_767", "trainable": true, "activation": "relu"}, "inbound_nodes": [[["batch_normalization_767", 0, 0, {}]]]}, {"name": "conv2d_773", "class_name": "Conv2D", "config": {"name": "conv2d_773", "trainable": true, "filters": 48, "kernel_size": [1, 1], "strides": [1, 1], "padding": "same", "data_format": "channels_last", "dilation_rate": [1, 1], "activation": "linear", "use_bias": true, "kernel_initializer": {"class_name": "VarianceScaling", "config": {"scale": 1.0, "mode": "fan_avg", "distribution": "uniform", "seed": null}}, "bias_initializer": {"class_name": "Zeros", "config": {}}, "kernel_regularizer": null, "bias_regularizer": null, "activity_regularizer": null, "kernel_constraint": null, "bias_constraint": null}, "inbound_nodes": [[["activation_767", 0, 0, {}]]]}, {"name": "batch_normalization_768", "class_name": "BatchNormalization", "config": {"name": "batch_normalization_768", "trainable": true, "axis": -1, "momentum": 0.99, "epsilon": 0.001, "center": true, "scale": true, "beta_initializer": {"class_name": "Zeros", "config": {}}, "gamma_initializer": {"class_name": "Ones", "config": {}}, "moving_mean_initializer": {"class_name": "Zeros", "config": {}}, "moving_variance_initializer": {"class_name": "Ones", "config": {}}, "beta_regularizer": null, "gamma_regularizer": null, "beta_constraint": null, "gamma_constraint": null}, "inbound_nodes": [[["conv2d_773", 0, 0, {}]]]}, {"name": "activation_768", "class_name": "Activation", "config": {"name": "activation_768", "trainable": true, "activation": "relu"}, "inbound_nodes": [[["batch_normalization_768", 0, 0, {}]]]}, {"name": "conv2d_774", "class_name": "Conv2D", "config": {"name": "conv2d_774", "trainable": true, "filters": 12, "kernel_size": [3, 3], "strides": [1, 1], "padding": "same", "data_format": "channels_last", "dilation_rate": [1, 1], "activation": "linear", "use_bias": true, "kernel_initializer": {"class_name": "VarianceScaling", "config": {"scale": 1.0, "mode": "fan_avg", "distribution": "uniform", "seed": null}}, "bias_initializer": {"class_name": "Zeros", "config": {}}, "kernel_regularizer": null, "bias_regularizer": null, "activity_regularizer": null, "kernel_constraint": null, "bias_constraint": null}, "inbound_nodes": [[["activation_768", 0, 0, {}]]]}, {"name": "dropout_414", "class_name": "Dropout", "config": {"name": "dropout_414", "trainable": true, "rate": 0.5, "noise_shape": null, "seed": null}, "inbound_nodes": [[["conv2d_774", 0, 0, {}]]]}, {"name": "concatenate_346", "class_name": "Concatenate", "config": {"name": "concatenate_346", "trainable": true, "axis": -1}, "inbound_nodes": [[["dropout_414", 0, 0, {}], ["concatenate_345", 0, 0, {}]]]}, {"name": "batch_normalization_769", "class_name": "BatchNormalization", "config": {"name": "batch_normalization_769", "trainable": true, "axis": -1, "momentum": 0.99, "epsilon": 0.001, "center": true, "scale": true, "beta_initializer": {"class_name": "Zeros", "config": {}}, "gamma_initializer": {"class_name": "Ones", "config": {}}, "moving_mean_initializer": {"class_name": "Zeros", "config": {}}, "moving_variance_initializer": {"class_name": "Ones", "config": {}}, "beta_regularizer": null, "gamma_regularizer": null, "beta_constraint": null, "gamma_constraint": null}, "inbound_nodes": [[["concatenate_346", 0, 0, {}]]]}, {"name": "activation_769", "class_name": "Activation", "config": {"name": "activation_769", "trainable": true, "activation": "relu"}, "inbound_nodes": [[["batch_normalization_769", 0, 0, {}]]]}, {"name": "conv2d_775", "class_name": "Conv2D", "config": {"name": "conv2d_775", "trainable": true, "filters": 58, "kernel_size": [1, 1], "strides": [1, 1], "padding": "same", "data_format": "channels_last", "dilation_rate": [1, 1], "activation": "linear", "use_bias": true, "kernel_initializer": {"class_name": "VarianceScaling", "config": {"scale": 1.0, "mode": "fan_avg", "distribution": "uniform", "seed": null}}, "bias_initializer": {"class_name": "Zeros", "config": {}}, "kernel_regularizer": null, "bias_regularizer": null, "activity_regularizer": null, "kernel_constraint": null, "bias_constraint": null}, "inbound_nodes": [[["activation_769", 0, 0, {}]]]}, {"name": "dropout_415", "class_name": "Dropout", "config": {"name": "dropout_415", "trainable": true, "rate": 0.5, "noise_shape": null, "seed": null}, "inbound_nodes": [[["conv2d_775", 0, 0, {}]]]}, {"name": "average_pooling2d_69", "class_name": "AveragePooling2D", "config": {"name": "average_pooling2d_69", "trainable": true, "pool_size": [2, 2], "padding": "valid", "strides": [2, 2], "data_format": "channels_last"}, "inbound_nodes": [[["dropout_415", 0, 0, {}]]]}, {"name": "batch_normalization_770", "class_name": "BatchNormalization", "config": {"name": "batch_normalization_770", "trainable": true, "axis": -1, "momentum": 0.99, "epsilon": 0.001, "center": true, "scale": true, "beta_initializer": {"class_name": "Zeros", "config": {}}, "gamma_initializer": {"class_name": "Ones", "config": {}}, "moving_mean_initializer": {"class_name": "Zeros", "config": {}}, "moving_variance_initializer": {"class_name": "Ones", "config": {}}, "beta_regularizer": null, "gamma_regularizer": null, "beta_constraint": null, "gamma_constraint": null}, "inbound_nodes": [[["average_pooling2d_69", 0, 0, {}]]]}, {"name": "activation_770", "class_name": "Activation", "config": {"name": "activation_770", "trainable": true, "activation": "relu"}, "inbound_nodes": [[["batch_normalization_770", 0, 0, {}]]]}, {"name": "conv2d_776", "class_name": "Conv2D", "config": {"name": "conv2d_776", "trainable": true, "filters": 48, "kernel_size": [1, 1], "strides": [1, 1], "padding": "same", "data_format": "channels_last", "dilation_rate": [1, 1], "activation": "linear", "use_bias": true, "kernel_initializer": {"class_name": "VarianceScaling", "config": {"scale": 1.0, "mode": "fan_avg", "distribution": "uniform", "seed": null}}, "bias_initializer": {"class_name": "Zeros", "config": {}}, "kernel_regularizer": null, "bias_regularizer": null, "activity_regularizer": null, "kernel_constraint": null, "bias_constraint": null}, "inbound_nodes": [[["activation_770", 0, 0, {}]]]}, {"name": "batch_normalization_771", "class_name": "BatchNormalization", "config": {"name": "batch_normalization_771", "trainable": true, "axis": -1, "momentum": 0.99, "epsilon": 0.001, "center": true, "scale": true, "beta_initializer": {"class_name": "Zeros", "config": {}}, "gamma_initializer": {"class_name": "Ones", "config": {}}, "moving_mean_initializer": {"class_name": "Zeros", "config": {}}, "moving_variance_initializer": {"class_name": "Ones", "config": {}}, "beta_regularizer": null, "gamma_regularizer": null, "beta_constraint": null, "gamma_constraint": null}, "inbound_nodes": [[["conv2d_776", 0, 0, {}]]]}, {"name": "activation_771", "class_name": "Activation", "config": {"name": "activation_771", "trainable": true, "activation": "relu"}, "inbound_nodes": [[["batch_normalization_771", 0, 0, {}]]]}, {"name": "conv2d_777", "class_name": "Conv2D", "config": {"name": "conv2d_777", "trainable": true, "filters": 12, "kernel_size": [3, 3], "strides": [1, 1], "padding": "same", "data_format": "channels_last", "dilation_rate": [1, 1], "activation": "linear", "use_bias": true, "kernel_initializer": {"class_name": "VarianceScaling", "config": {"scale": 1.0, "mode": "fan_avg", "distribution": "uniform", "seed": null}}, "bias_initializer": {"class_name": "Zeros", "config": {}}, "kernel_regularizer": null, "bias_regularizer": null, "activity_regularizer": null, "kernel_constraint": null, "bias_constraint": null}, "inbound_nodes": [[["activation_771", 0, 0, {}]]]}, {"name": "dropout_416", "class_name": "Dropout", "config": {"name": "dropout_416", "trainable": true, "rate": 0.5, "noise_shape": null, "seed": null}, "inbound_nodes": [[["conv2d_777", 0, 0, {}]]]}, {"name": "concatenate_347", "class_name": "Concatenate", "config": {"name": "concatenate_347", "trainable": true, "axis": -1}, "inbound_nodes": [[["dropout_416", 0, 0, {}], ["average_pooling2d_69", 0, 0, {}]]]}, {"name": "batch_normalization_772", "class_name": "BatchNormalization", "config": {"name": "batch_normalization_772", "trainable": true, "axis": -1, "momentum": 0.99, "epsilon": 0.001, "center": true, "scale": true, "beta_initializer": {"class_name": "Zeros", "config": {}}, "gamma_initializer": {"class_name": "Ones", "config": {}}, "moving_mean_initializer": {"class_name": "Zeros", "config": {}}, "moving_variance_initializer": {"class_name": "Ones", "config": {}}, "beta_regularizer": null, "gamma_regularizer": null, "beta_constraint": null, "gamma_constraint": null}, "inbound_nodes": [[["concatenate_347", 0, 0, {}]]]}, {"name": "activation_772", "class_name": "Activation", "config": {"name": "activation_772", "trainable": true, "activation": "relu"}, "inbound_nodes": [[["batch_normalization_772", 0, 0, {}]]]}, {"name": "conv2d_778", "class_name": "Conv2D", "config": {"name": "conv2d_778", "trainable": true, "filters": 48, "kernel_size": [1, 1], "strides": [1, 1], "padding": "same", "data_format": "channels_last", "dilation_rate": [1, 1], "activation": "linear", "use_bias": true, "kernel_initializer": {"class_name": "VarianceScaling", "config": {"scale": 1.0, "mode": "fan_avg", "distribution": "uniform", "seed": null}}, "bias_initializer": {"class_name": "Zeros", "config": {}}, "kernel_regularizer": null, "bias_regularizer": null, "activity_regularizer": null, "kernel_constraint": null, "bias_constraint": null}, "inbound_nodes": [[["activation_772", 0, 0, {}]]]}, {"name": "batch_normalization_773", "class_name": "BatchNormalization", "config": {"name": "batch_normalization_773", "trainable": true, "axis": -1, "momentum": 0.99, "epsilon": 0.001, "center": true, "scale": true, "beta_initializer": {"class_name": "Zeros", "config": {}}, "gamma_initializer": {"class_name": "Ones", "config": {}}, "moving_mean_initializer": {"class_name": "Zeros", "config": {}}, "moving_variance_initializer": {"class_name": "Ones", "config": {}}, "beta_regularizer": null, "gamma_regularizer": null, "beta_constraint": null, "gamma_constraint": null}, "inbound_nodes": [[["conv2d_778", 0, 0, {}]]]}, {"name": "activation_773", "class_name": "Activation", "config": {"name": "activation_773", "trainable": true, "activation": "relu"}, "inbound_nodes": [[["batch_normalization_773", 0, 0, {}]]]}, {"name": "conv2d_779", "class_name": "Conv2D", "config": {"name": "conv2d_779", "trainable": true, "filters": 12, "kernel_size": [3, 3], "strides": [1, 1], "padding": "same", "data_format": "channels_last", "dilation_rate": [1, 1], "activation": "linear", "use_bias": true, "kernel_initializer": {"class_name": "VarianceScaling", "config": {"scale": 1.0, "mode": "fan_avg", "distribution": "uniform", "seed": null}}, "bias_initializer": {"class_name": "Zeros", "config": {}}, "kernel_regularizer": null, "bias_regularizer": null, "activity_regularizer": null, "kernel_constraint": null, "bias_constraint": null}, "inbound_nodes": [[["activation_773", 0, 0, {}]]]}, {"name": "dropout_417", "class_name": "Dropout", "config": {"name": "dropout_417", "trainable": true, "rate": 0.5, "noise_shape": null, "seed": null}, "inbound_nodes": [[["conv2d_779", 0, 0, {}]]]}, {"name": "concatenate_348", "class_name": "Concatenate", "config": {"name": "concatenate_348", "trainable": true, "axis": -1}, "inbound_nodes": [[["dropout_417", 0, 0, {}], ["concatenate_347", 0, 0, {}]]]}, {"name": "batch_normalization_774", "class_name": "BatchNormalization", "config": {"name": "batch_normalization_774", "trainable": true, "axis": -1, "momentum": 0.99, "epsilon": 0.001, "center": true, "scale": true, "beta_initializer": {"class_name": "Zeros", "config": {}}, "gamma_initializer": {"class_name": "Ones", "config": {}}, "moving_mean_initializer": {"class_name": "Zeros", "config": {}}, "moving_variance_initializer": {"class_name": "Ones", "config": {}}, "beta_regularizer": null, "gamma_regularizer": null, "beta_constraint": null, "gamma_constraint": null}, "inbound_nodes": [[["concatenate_348", 0, 0, {}]]]}, {"name": "activation_774", "class_name": "Activation", "config": {"name": "activation_774", "trainable": true, "activation": "relu"}, "inbound_nodes": [[["batch_normalization_774", 0, 0, {}]]]}, {"name": "conv2d_780", "class_name": "Conv2D", "config": {"name": "conv2d_780", "trainable": true, "filters": 48, "kernel_size": [1, 1], "strides": [1, 1], "padding": "same", "data_format": "channels_last", "dilation_rate": [1, 1], "activation": "linear", "use_bias": true, "kernel_initializer": {"class_name": "VarianceScaling", "config": {"scale": 1.0, "mode": "fan_avg", "distribution": "uniform", "seed": null}}, "bias_initializer": {"class_name": "Zeros", "config": {}}, "kernel_regularizer": null, "bias_regularizer": null, "activity_regularizer": null, "kernel_constraint": null, "bias_constraint": null}, "inbound_nodes": [[["activation_774", 0, 0, {}]]]}, {"name": "batch_normalization_775", "class_name": "BatchNormalization", "config": {"name": "batch_normalization_775", "trainable": true, "axis": -1, "momentum": 0.99, "epsilon": 0.001, "center": true, "scale": true, "beta_initializer": {"class_name": "Zeros", "config": {}}, "gamma_initializer": {"class_name": "Ones", "config": {}}, "moving_mean_initializer": {"class_name": "Zeros", "config": {}}, "moving_variance_initializer": {"class_name": "Ones", "config": {}}, "beta_regularizer": null, "gamma_regularizer": null, "beta_constraint": null, "gamma_constraint": null}, "inbound_nodes": [[["conv2d_780", 0, 0, {}]]]}, {"name": "activation_775", "class_name": "Activation", "config": {"name": "activation_775", "trainable": true, "activation": "relu"}, "inbound_nodes": [[["batch_normalization_775", 0, 0, {}]]]}, {"name": "conv2d_781", "class_name": "Conv2D", "config": {"name": "conv2d_781", "trainable": true, "filters": 12, "kernel_size": [3, 3], "strides": [1, 1], "padding": "same", "data_format": "channels_last", "dilation_rate": [1, 1], "activation": "linear", "use_bias": true, "kernel_initializer": {"class_name": "VarianceScaling", "config": {"scale": 1.0, "mode": "fan_avg", "distribution": "uniform", "seed": null}}, "bias_initializer": {"class_name": "Zeros", "config": {}}, "kernel_regularizer": null, "bias_regularizer": null, "activity_regularizer": null, "kernel_constraint": null, "bias_constraint": null}, "inbound_nodes": [[["activation_775", 0, 0, {}]]]}, {"name": "dropout_418", "class_name": "Dropout", "config": {"name": "dropout_418", "trainable": true, "rate": 0.5, "noise_shape": null, "seed": null}, "inbound_nodes": [[["conv2d_781", 0, 0, {}]]]}, {"name": "concatenate_349", "class_name": "Concatenate", "config": {"name": "concatenate_349", "trainable": true, "axis": -1}, "inbound_nodes": [[["dropout_418", 0, 0, {}], ["concatenate_348", 0, 0, {}]]]}, {"name": "batch_normalization_776", "class_name": "BatchNormalization", "config": {"name": "batch_normalization_776", "trainable": true, "axis": -1, "momentum": 0.99, "epsilon": 0.001, "center": true, "scale": true, "beta_initializer": {"class_name": "Zeros", "config": {}}, "gamma_initializer": {"class_name": "Ones", "config": {}}, "moving_mean_initializer": {"class_name": "Zeros", "config": {}}, "moving_variance_initializer": {"class_name": "Ones", "config": {}}, "beta_regularizer": null, "gamma_regularizer": null, "beta_constraint": null, "gamma_constraint": null}, "inbound_nodes": [[["concatenate_349", 0, 0, {}]]]}, {"name": "activation_776", "class_name": "Activation", "config": {"name": "activation_776", "trainable": true, "activation": "relu"}, "inbound_nodes": [[["batch_normalization_776", 0, 0, {}]]]}, {"name": "conv2d_782", "class_name": "Conv2D", "config": {"name": "conv2d_782", "trainable": true, "filters": 48, "kernel_size": [1, 1], "strides": [1, 1], "padding": "same", "data_format": "channels_last", "dilation_rate": [1, 1], "activation": "linear", "use_bias": true, "kernel_initializer": {"class_name": "VarianceScaling", "config": {"scale": 1.0, "mode": "fan_avg", "distribution": "uniform", "seed": null}}, "bias_initializer": {"class_name": "Zeros", "config": {}}, "kernel_regularizer": null, "bias_regularizer": null, "activity_regularizer": null, "kernel_constraint": null, "bias_constraint": null}, "inbound_nodes": [[["activation_776", 0, 0, {}]]]}, {"name": "batch_normalization_777", "class_name": "BatchNormalization", "config": {"name": "batch_normalization_777", "trainable": true, "axis": -1, "momentum": 0.99, "epsilon": 0.001, "center": true, "scale": true, "beta_initializer": {"class_name": "Zeros", "config": {}}, "gamma_initializer": {"class_name": "Ones", "config": {}}, "moving_mean_initializer": {"class_name": "Zeros", "config": {}}, "moving_variance_initializer": {"class_name": "Ones", "config": {}}, "beta_regularizer": null, "gamma_regularizer": null, "beta_constraint": null, "gamma_constraint": null}, "inbound_nodes": [[["conv2d_782", 0, 0, {}]]]}, {"name": "activation_777", "class_name": "Activation", "config": {"name": "activation_777", "trainable": true, "activation": "relu"}, "inbound_nodes": [[["batch_normalization_777", 0, 0, {}]]]}, {"name": "conv2d_783", "class_name": "Conv2D", "config": {"name": "conv2d_783", "trainable": true, "filters": 12, "kernel_size": [3, 3], "strides": [1, 1], "padding": "same", "data_format": "channels_last", "dilation_rate": [1, 1], "activation": "linear", "use_bias": true, "kernel_initializer": {"class_name": "VarianceScaling", "config": {"scale": 1.0, "mode": "fan_avg", "distribution": "uniform", "seed": null}}, "bias_initializer": {"class_name": "Zeros", "config": {}}, "kernel_regularizer": null, "bias_regularizer": null, "activity_regularizer": null, "kernel_constraint": null, "bias_constraint": null}, "inbound_nodes": [[["activation_777", 0, 0, {}]]]}, {"name": "dropout_419", "class_name": "Dropout", "config": {"name": "dropout_419", "trainable": true, "rate": 0.5, "noise_shape": null, "seed": null}, "inbound_nodes": [[["conv2d_783", 0, 0, {}]]]}, {"name": "concatenate_350", "class_name": "Concatenate", "config": {"name": "concatenate_350", "trainable": true, "axis": -1}, "inbound_nodes": [[["dropout_419", 0, 0, {}], ["concatenate_349", 0, 0, {}]]]}, {"name": "batch_normalization_778", "class_name": "BatchNormalization", "config": {"name": "batch_normalization_778", "trainable": true, "axis": -1, "momentum": 0.99, "epsilon": 0.001, "center": true, "scale": true, "beta_initializer": {"class_name": "Zeros", "config": {}}, "gamma_initializer": {"class_name": "Ones", "config": {}}, "moving_mean_initializer": {"class_name": "Zeros", "config": {}}, "moving_variance_initializer": {"class_name": "Ones", "config": {}}, "beta_regularizer": null, "gamma_regularizer": null, "beta_constraint": null, "gamma_constraint": null}, "inbound_nodes": [[["concatenate_350", 0, 0, {}]]]}, {"name": "activation_778", "class_name": "Activation", "config": {"name": "activation_778", "trainable": true, "activation": "relu"}, "inbound_nodes": [[["batch_normalization_778", 0, 0, {}]]]}, {"name": "conv2d_784", "class_name": "Conv2D", "config": {"name": "conv2d_784", "trainable": true, "filters": 48, "kernel_size": [1, 1], "strides": [1, 1], "padding": "same", "data_format": "channels_last", "dilation_rate": [1, 1], "activation": "linear", "use_bias": true, "kernel_initializer": {"class_name": "VarianceScaling", "config": {"scale": 1.0, "mode": "fan_avg", "distribution": "uniform", "seed": null}}, "bias_initializer": {"class_name": "Zeros", "config": {}}, "kernel_regularizer": null, "bias_regularizer": null, "activity_regularizer": null, "kernel_constraint": null, "bias_constraint": null}, "inbound_nodes": [[["activation_778", 0, 0, {}]]]}, {"name": "batch_normalization_779", "class_name": "BatchNormalization", "config": {"name": "batch_normalization_779", "trainable": true, "axis": -1, "momentum": 0.99, "epsilon": 0.001, "center": true, "scale": true, "beta_initializer": {"class_name": "Zeros", "config": {}}, "gamma_initializer": {"class_name": "Ones", "config": {}}, "moving_mean_initializer": {"class_name": "Zeros", "config": {}}, "moving_variance_initializer": {"class_name": "Ones", "config": {}}, "beta_regularizer": null, "gamma_regularizer": null, "beta_constraint": null, "gamma_constraint": null}, "inbound_nodes": [[["conv2d_784", 0, 0, {}]]]}, {"name": "activation_779", "class_name": "Activation", "config": {"name": "activation_779", "trainable": true, "activation": "relu"}, "inbound_nodes": [[["batch_normalization_779", 0, 0, {}]]]}, {"name": "conv2d_785", "class_name": "Conv2D", "config": {"name": "conv2d_785", "trainable": true, "filters": 12, "kernel_size": [3, 3], "strides": [1, 1], "padding": "same", "data_format": "channels_last", "dilation_rate": [1, 1], "activation": "linear", "use_bias": true, "kernel_initializer": {"class_name": "VarianceScaling", "config": {"scale": 1.0, "mode": "fan_avg", "distribution": "uniform", "seed": null}}, "bias_initializer": {"class_name": "Zeros", "config": {}}, "kernel_regularizer": null, "bias_regularizer": null, "activity_regularizer": null, "kernel_constraint": null, "bias_constraint": null}, "inbound_nodes": [[["activation_779", 0, 0, {}]]]}, {"name": "dropout_420", "class_name": "Dropout", "config": {"name": "dropout_420", "trainable": true, "rate": 0.5, "noise_shape": null, "seed": null}, "inbound_nodes": [[["conv2d_785", 0, 0, {}]]]}, {"name": "concatenate_351", "class_name": "Concatenate", "config": {"name": "concatenate_351", "trainable": true, "axis": -1}, "inbound_nodes": [[["dropout_420", 0, 0, {}], ["concatenate_350", 0, 0, {}]]]}, {"name": "batch_normalization_780", "class_name": "BatchNormalization", "config": {"name": "batch_normalization_780", "trainable": true, "axis": -1, "momentum": 0.99, "epsilon": 0.001, "center": true, "scale": true, "beta_initializer": {"class_name": "Zeros", "config": {}}, "gamma_initializer": {"class_name": "Ones", "config": {}}, "moving_mean_initializer": {"class_name": "Zeros", "config": {}}, "moving_variance_initializer": {"class_name": "Ones", "config": {}}, "beta_regularizer": null, "gamma_regularizer": null, "beta_constraint": null, "gamma_constraint": null}, "inbound_nodes": [[["concatenate_351", 0, 0, {}]]]}, {"name": "activation_780", "class_name": "Activation", "config": {"name": "activation_780", "trainable": true, "activation": "relu"}, "inbound_nodes": [[["batch_normalization_780", 0, 0, {}]]]}, {"name": "global_average_pooling2d_9", "class_name": "GlobalAveragePooling2D", "config": {"name": "global_average_pooling2d_9", "trainable": true, "data_format": "channels_last"}, "inbound_nodes": [[["activation_780", 0, 0, {}]]]}, {"name": "dense_7", "class_name": "Dense", "config": {"name": "dense_7", "trainable": true, "units": 1, "activation": "sigmoid", "use_bias": true, "kernel_initializer": {"class_name": "VarianceScaling", "config": {"scale": 1.0, "mode": "fan_avg", "distribution": "uniform", "seed": null}}, "bias_initializer": {"class_name": "Zeros", "config": {}}, "kernel_regularizer": null, "bias_regularizer": null, "activity_regularizer": null, "kernel_constraint": null, "bias_constraint": null}, "inbound_nodes": [[["global_average_pooling2d_9", 0, 0, {}]]]}], "input_layers": [["img_input", 0, 0]], "output_layers": [["dense_7", 0, 0]]}, "keras_version": "2.2.4", "backend": "tensorflow"}